…
events{/privacy}", "received_events_url": "https://api.github.com/users/shuangshuangguo/received_events", "type": "User", "site_admin": false}, "labels": [], "state": "closed", "locked": false, "assignee": null, "assignees": [], "milestone": null, "comments": 0, "created_at": "2017-10-11T07:31:09Z", "updated_at": "2017-10-11T12:18:22Z", "closed_at": "2017-10-11T12:18:22Z", "author_association": "NONE", "body_html": "<p>Hi, everyone, I have a problem of net.children:<br>\nI have got a pretrained model but it has only one child as following:</p>\n<blockquote>\n<p>BNInception (<br>\n(conv1_7x7_s2): Conv2d(3, 64, kernel_size=(7, 7), stride=(2, 2), padding=(3, 3))<br>\n(conv1_7x7_s2_bn): BatchNorm2d(64, eps=1e-05, momentum=0.1, affine=True)<br>\n(conv1_relu_7x7): ReLU (inplace)<br>\n(pool1_3x3_s2): MaxPool2d (size=(3, 3), stride=(2, 2), dilation=(1, 1))<br>\n(conv2_3x3_reduce): Conv2d(64, 64, kernel_size=(1, 1), stride=(1, 1))<br>\n(conv2_3x3_reduce_bn): BatchNorm2d(64, eps=1e-05, momentum=0.1, affine=True)<br>\n(conv2_relu_3x3_reduce): ReLU (inplace)<br>\n(conv2_3x3): Conv2d(64, 192, kernel_size=(3, 3), stride=(1, 1), padding=(1, 1))<br>\n(conv2_3x3_bn): BatchNorm2d(192, eps=1e-05, momentum=0.1, affine=True)<br>\n(conv2_relu_3x3): ReLU (inplace)<br>\n(pool2_3x3_s2): MaxPool2d (size=(3, 3), stride=(2, 2), dilation=(1, 1))<br>\n(inception_3a_1x1): Conv2d(192, 64, kernel_size=(1, 1), stride=(1, 1))<br>\n(inception_3a_1x1_bn): BatchNorm2d(64, eps=1e-05, momentum=0.1, affine=True)<br>\n(inception_3a_relu_1x1): ReLU (inplace)<br>\n.........<br>\n)<br>\n)</p>\n</blockquote>\n<p>Then, how can I get output of immediate layer in this situation?<br>\nplease help me, thank you!</p>", "body_text": "Hi, everyone, I have a problem of net.children:\nI have got a pretrained model but it has only one child as following:\n\nBNInception (\n(conv1_7x7_s2): Conv2d(3, 64, kernel_size=(7, 7), stride=(2, 2), padding=(3, 3))\n(conv1_7x7_s2_bn): BatchNorm2d(64, eps=1e-05, momentum=0.1, affine=True)\n(conv1_relu_7x7): ReLU (inplace)\n(pool1_3x3_s2): MaxPool2d (size=(3, 3), stride=(2, 2), dilation=(1, 1))\n(conv2_3x3_reduce): Conv2d(64, 64, kernel_size=(1, 1), stride=(1, 1))\n(conv2_3x3_reduce_bn): BatchNorm2d(64, eps=1e-05, momentum=0.1, affine=True)\n(conv2_relu_3x3_reduce): ReLU (inplace)\n(conv2_3x3): Conv2d(64, 192, kernel_size=(3, 3), stride=(1, 1), padding=(1, 1))\n(conv2_3x3_bn): BatchNorm2d(192, eps=1e-05, momentum=0.1, affine=True)\n(conv2_relu_3x3): ReLU (inplace)\n(pool2_3x3_s2): MaxPool2d (size=(3, 3), stride=(2, 2), dilation=(1, 1))\n(inception_3a_1x1): Conv2d(192, 64, kernel_size=(1, 1), stride=(1, 1))\n(inception_3a_1x1_bn): BatchNorm2d(64, eps=1e-05, momentum=0.1, affine=True)\n(inception_3a_relu_1x1): ReLU (inplace)\n.........\n)\n)\n\nThen, how can I get output of immediate layer in this situation?\nplease help me, thank you!", "body": "Hi, everyone, I have a problem of net.children:\r\nI have got a pretrained model but it has only one child as following:\r\n\r\n> BNInception (\r\n    (conv1_7x7_s2): Conv2d(3, 64, kernel_size=(7, 7), stride=(2, 2), padding=(3, 3))\r\n    (conv1_7x7_s2_bn): BatchNorm2d(64, eps=1e-05, momentum=0.1, affine=True)\r\n    (conv1_relu_7x7): ReLU (inplace)\r\n    (pool1_3x3_s2): MaxPool2d (size=(3, 3), stride=(2, 2), dilation=(1, 1))\r\n    (conv2_3x3_reduce): Conv2d(64, 64, kernel_size=(1, 1), stride=(1, 1))\r\n    (conv2_3x3_reduce_bn): BatchNorm2d(64, eps=1e-05, momentum=0.1, affine=True)\r\n    (conv2_relu_3x3_reduce): ReLU (inplace)\r\n    (conv2_3x3): Conv2d(64, 192, kernel_size=(3, 3), stride=(1, 1), padding=(1, 1))\r\n    (conv2_3x3_bn): BatchNorm2d(192, eps=1e-05, momentum=0.1, affine=True)\r\n    (conv2_relu_3x3): ReLU (inplace)\r\n    (pool2_3x3_s2): MaxPool2d (size=(3, 3), stride=(2, 2), dilation=(1, 1))\r\n    (inception_3a_1x1): Conv2d(192, 64, kernel_size=(1, 1), stride=(1, 1))\r\n    (inception_3a_1x1_bn): BatchNorm2d(64, eps=1e-05, momentum=0.1, affine=True)\r\n    (inception_3a_relu_1x1): ReLU (inplace)\r\n......... \r\n  )\r\n)\r\n\r\nThen, how can I get output of immediate layer in this situation?\r\nplease help me, thank you!"}