…
\n\nx = Flatten(name='flatte1',inputs=x)\n\nx = Dense(256,name='fc1')(x)\n\n# max_length of sentence\nx = RepeatVector(7,name='repeat')(x)\n\n#2*GRU the output shape is (None,7,256)\nx = Bidirectional(GRU(units=128,name='GRU',return_sequences=True))(x)\n\n#apply (None,7,256) to all GRUs output (None,7,16)\nx = TimeDistributed(Dense(16,name='fc2'))(x)\nx = Activation('softmax')(x)\nx = Flatten(name='Flatten2',inputs=x)\n</code></pre>\n<p>when I show my summary, it print like this</p>\n<hr>\n<h1>Layer (type)                 Output Shape              Param #</h1>\n<p>input_1 (InputLayer)         (None, 90, 30, 3)         0</p>\n<hr>\n<p>conv1 (Conv2D)               (None, 88, 28, 32)        896</p>\n<hr>\n<p>pool1 (MaxPooling2D)         (None, 44, 14, 32)        0</p>\n<hr>\n<p>bn1 (BatchNormalization)     (None, 44, 14, 32)        128</p>\n<hr>\n<p>activation_1 (Activation)    (None, 44, 14, 32)        0</p>\n<hr>\n<p>conv2 (Conv2D)               (None, 42, 12, 64)        18496</p>\n<hr>\n<p>pool2 (MaxPooling2D)         (None, 21, 6, 64)         0</p>\n<hr>\n<p>bn2 (BatchNormalization)     (None, 21, 6, 64)         256</p>\n<hr>\n<p>activation_2 (Activation)    (None, 21, 6, 64)         0</p>\n<hr>\n<p>conv3 (Conv2D)               (None, 19, 4, 64)         36928</p>\n<hr>\n<p>pool3 (MaxPooling2D)         (None, 9, 2, 64)          0</p>\n<hr>\n<p>bn3 (BatchNormalization)     (None, 9, 2, 64)          256</p>\n<hr>\n<p>activation_3 (Activation)    (None, 9, 2, 64)          0</p>\n<hr>\n<p>flatte1 (Flatten)            (None, 1152)              0</p>\n<hr>\n<p>fc1 (Dense)                  (None, 256)               295168</p>\n<hr>\n<p>repeat (RepeatVector)        (None, 7, 256)            0</p>\n<hr>\n<p>bidirectional_1 (Bidirection (None, 7, 256)            295680</p>\n<hr>\n<p>time_distributed_1 (TimeDist (None, 7, 16)             4112</p>\n<hr>\n<h1>Flatten2 (Flatten)           (None, 112)               0</h1>\n<p>but when I change my codes to tf.keras like this(the architecture do not change! )</p>\n<hr>\n<p>repeat (RepeatVector)        (None, 7, 256)            0</p>\n<hr>\n<p>bidirectional_1 (Bidirection (None, None, 256)         295680</p>\n<hr>\n<p>time_distributed_1 (TimeDist (None, None, 16)          4112</p>\n<hr>\n<p>activation_4 (Activation)    (None, None, 16)          0</p>\n<hr>\n<h1>Flatten2 (Flatten)           (None, None)              0</h1>\n<p>Total params: 651,920<br>\nTrainable params: 651,600<br>\nNon-trainable params: 320</p>\n<hr>\n<p
…
