…
span class=\"pl-c1\">64</span>, <span class=\"pl-c1\">3</span>, <span class=\"pl-c1\">2</span>, <span class=\"pl-v\">scope</span><span class=\"pl-k\">=</span><span class=\"pl-s\"><span class=\"pl-pds\">'</span>block_2<span class=\"pl-pds\">'</span></span>)\n\n  model <span class=\"pl-k\">=</span> tf.keras.Model(inputs, outputs)\n  model.summary()</pre></div>\n<pre><code>_________________________________________________________________\nLayer (type)                 Output Shape              Param #\n=================================================================\ninputs (InputLayer)          (1, 224, 224, 3)          0\n_________________________________________________________________\nconv2d (Conv2D)              (1, 111, 111, 32)         896\n_________________________________________________________________\nbatch_normalization (BatchNo (1, 111, 111, 32)         128\n_________________________________________________________________\nactivation (Activation)      (1, 111, 111, 32)         0\n_________________________________________________________________\nconv2d_1 (Conv2D)            (1, 55, 55, 64)           18496\n_________________________________________________________________\nbatch_normalization_1 (Batch (1, 55, 55, 64)           256\n_________________________________________________________________\nactivation_1 (Activation)    (1, 55, 55, 64)           0\n=================================================================\nTotal params: 19,776\nTrainable params: 19,584\nNon-trainable params: 192\n_________________________________________________________________\n</code></pre>\n<ol start=\"2\">\n<li>or, custom name:</li>\n</ol>\n<div class=\"highlight highlight-source-python\"><pre><span class=\"pl-k\">import</span> tensorflow <span class=\"pl-k\">a
…
