…
del(input_tensor, out)\nmodel.compile(loss=\"mse\", optimizer=tf.train.AdamOptimizer(learning_rate=0.001))\nmodel.summary()\nmodel.layers.pop()\nmodel.layers.pop()\nmodel.summary()\nhidden = Dense(120, activation='relu')(model.layers[-1].output)\nout = Dense(5, activation='softmax')(hidden)\nmodel = Model(input_tensor, out)\nmodel.summary()\n</code></pre>\n<pre><code>_________________________________________________________________\nLayer (type)                 Output Shape              Param #   \n=================================================================\ninput_1 (InputLayer)         (None, 10)                0         \n_________________________________________________________________\ndense (Dense)                (None, 100)               1100      \n_________________________________________________________________\ndense_1 (Dense)              (None, 10)                1010      \n=================================================================\nTotal params: 2,110\nTrainable params: 2,110\nNon-trainable params: 0\n</code></pre>\n<pre><code>_________________________________________________________________\n_________________________________________________________________\nLayer (type)                 Output Shape              Param #   \n=================================================================\ninput_1 (InputLayer)         (None, 10)                0         \n_________________________________________________________________\ndense (Dense)                (None, 100)               1100      \n_________________________________________________________________\ndense_1 (Dense)              (None, 10)                1010      \n=================================================================\nTotal params: 2,110\nTrainable params: 2,110\nNon-trainable params: 0\n\n</code></pre>\n<pre><code>_________________________________________________________________\n_________________________________________________________________\nLayer (type)                 Output Shape              Param #   \n=================================================================\ninput_1 (InputLayer)         (None, 10)                0         \n_________________________________________________________________\ndense (Dense)                (None, 100)               1100      \n_________________________________________________________________\ndense_1 (Dense)              (None, 10)                1010      \n_________________________________________________________________\ndense_2 (Dense)              (None, 120)               1320      \n_________________________________________________________________\ndense_3 (Dense)              (None, 5)                 605       \n=================================================================\nTotal params: 4,035\nTrainable params: 4,035\nNon-trainable params: 0\n_________________________________________________________________\n</code></pre>", "body_text": "System information\n\nHave I written custom code (as opposed to using a stock example script provided in TensorFlow): Yes\nOS Platform and Distribution (e.g
…
