…
:03:00.0, compute capability: 6.1)\n2018-06-12 22:57:17.079930: I T:\\src\\github\\tensorflow\\tensorflow\\core\\common_runtime\\gpu\\gpu_device.cc:1041] Created TensorFlow device (/job:localhost/replica:0/task:0/device:GPU:1 with 9619 MB memory) -&gt; physical GPU (device: 1, name: TITAN X (Pascal), pci bus id: 0000:a1:00.0, compute capability: 6.1)\nCreating Model\n_________________________________________________________________\nLayer (type)                 Output Shape              Param #   \n=================================================================\nlstm_1 (LSTM)                (10, 24000, 100)          279600    \n_________________________________________________________________\nbatch_normalization_1 (Batch (10, 24000, 100)          400       \n_________________________________________________________________\nlstm_2 (LSTM)                (10, 24000, 100)          80400     \n_________________________________________________________________\nbatch_normalization_2 (Batch (10, 24000, 100)          400       \n_________________________________________________________________\nlstm_3 (LSTM)                (10, 24000, 100)          80400     \n_________________________________________________________________\nbatch_normalization_3 (Batch (10, 24000, 100)          400       \n_________________________________________________________________\ndense_1 (Dense)              (10, 24000, 3)            303       \n=================================================================\nTotal params: 441,903\nTrainable params: 441,303\nNon-trainable params: 600\n_________________________________________________________________\nNone\nEpoch 1/2\n\n10/20 [==============&gt;...............] - ETA: 6:45 - loss: 0.0000e+00 - acc: 1.0000 - weighted_acc: 1.0000\n20/20 [==============================] - 904s 45s/
…
n10/20 [==============&gt;...............] - ETA: 43s\n20/20 [==============================] - 86s 4s/step\n</code></pre>\n<p>And here is the output log with Keras and Estimator (USE_ESTIMATOR=True)</p>\n<pre><code>[Console output redirected to file:C:\\Users\\philip.LMS\\git\\GIT_RD_Python\\Ch2018\\ch2018_train\\TestEstimator_20180612_2338_log.txt]\nCreating Model\n_________________________________________________________________\nLayer (type)                 Output Shape              Param #   \n=================================================================\nlstm_1 (LSTM)                (1, 24000, 100)           279600    \n_________________________________________________________________\nbatch_normalization_1 (Batch (1, 24000, 100)           400       \n_________________________________________________________________\nlstm_2 (LSTM)                (1, 24000, 100)           80400     \n_________________________________________________________________\nbatch_normalization_2 (Batch (1, 24000, 100)           400       \n_________________________________________________________________\nlstm_3 (LSTM)                (1, 24000, 100)           80400     \n_________________________________________________________________\nbatch_normalization_3 (Batch (1, 24000, 100)           400       \n_________________________________________________________________\ndense_1 (Dense)              (1, 24000, 3)             303       \n=================================================================\nTotal params: 441,903\nTrainable params: 441,303\nNon-trainable params: 600\n_________________________________________________________________\nNone\n2018-06-12 23:39:11.126586: I T:\\src\\github\\tensorflow\\tensorflow\\core\\platform\\cpu_feature_guard.cc:140] Your CPU supports instructions that this TensorFlow binary wa
…
