…
                self.layers[ln].running_mean.data = torch.from_numpy(w[2])\n                self.layers[ln].running_var.data = torch.from_numpy(w[3])\n\n            elif layer['class_name'] == 'LeakyReLU':\n                self.layers[ln] = nn.LeakyReLU(.1)\n            elif layer['class_name'] == 'MaxPooling2D':\n                self.layers[ln] = nn.MaxPool2d(2, 2)\n            elif layer['class_name'] == 'Lambda':\n                self.layers[ln] = space_to_depth(2)\n</code></pre>\n<p>By the way here is the network definition of mine:</p>\n<pre><code>YoloV2 (\n  (path1): ModuleList (\n    (0): Conv2d(3, 32, kernel_size=(3, 3), stride=(1, 1), padding=(1, 1), bias=False)\n    (1): BatchNorm2d(32, eps=1e-05, momentum=0.1, affine=True)\n    (2): LeakyReLU (0.1)\n    (3): MaxPool2d (size=(2, 2), stride=(2, 2), dilation=(1, 1))\n    (4): Conv2d(32, 64, kernel_size=(3, 3), stride=(1, 1), padding=(1, 1), bias=False)\n    (5): BatchNorm2d(64, eps=1e-05, momentum=0.1, affine=True)\n    (6): LeakyReLU (0.1)\n    (7): MaxPool2d (size=(2, 2), stride=(2, 2), dilation=(1, 1))\n    (8): Conv2d(64, 128, kernel_size=(3, 3), stride=(1, 1), padding=(1, 1), bias=False)\n    (9): BatchNorm2d(128, eps=1e-05, momentum=0.1, affine=True)\n    (10): LeakyReLU (0.1)\n    (11): Conv2d(128, 64, kernel_size=(1, 1), stride=(1, 1), bias=False)\n    (12): BatchNorm2d(64, eps=1e-05, momentum=0.1, affine=True)\n    (13): LeakyReLU (0.1)\n    (14): Conv2d(64, 128, kernel_size=(3, 3), stride=(1, 1), padding=(1, 1), bias=False)\n    (15): BatchNorm2d(128, eps=1e-05, momentum=0.1, affine=True)\n    (16): LeakyReLU (0.1)\n    (17): MaxPool2d (size=(2, 2), stride=(2, 2), dilation=(1, 1))\n    (18): Conv2d(128, 256, kernel_size=(3, 3), stride=(1, 1), padding=(1, 1), bias=False)\n    (19): BatchNorm2d(256, eps=1e-05, momentum=0.1, affine=True)\n    (20): LeakyReLU (0.1)\n    (21): Conv2d(256, 128, kernel_size=(1, 1), stride=(1, 1), bias=False)\n    (22): BatchNorm2d(128, eps=1e-05, momentum=0.1, affine=True)\n    (23): LeakyReLU (0.1)\n    (24): Conv2d(128, 256, kernel_size=(3, 3), stride=(1, 1), padding=(1, 1), bias=False)\n    (25): BatchNorm2d(256, eps=1e-05, momentum=0.1, affine=True)\n    (26): LeakyReLU (0.1)\n    (27): MaxPool2d (size=(2, 2), stride=(2, 2), dilation=(1, 1))\n    (28): Conv2d(256, 512, kernel_size=(3, 3), stride=(1, 1), padding=(1, 1), bias=False)\n    (29): BatchNorm2d(512, eps=1e-05, momentum=0.1, affine=True)\n    (30): LeakyReLU (0.1)\n    (31): Conv2d(512, 256, kernel_size=(1, 1), stride=(1, 1), bias=False)\n    (32): BatchNorm2d(256, eps=1e-05, momentum=0.1, affine=True)\n    (33): LeakyReLU (0.1)\n    (34): Conv2d(256, 512, kernel_size=(3, 3), stride=(1, 1), padding=(1, 1), bias=False)\n    (35): BatchNorm2d(512, eps=1e-05, momentum=0.1, affine=True)\n    (36): LeakyReLU (0.1)\n    (37): Conv2d(512, 256, kernel_size=(1, 1), stride=(1, 1), bias=False)\n    (38): BatchNorm2d(256, eps=1e-05, momentum=0.1, affine=True)\n    (39): LeakyReLU (0.1)\n    (40): Conv2d(256, 512, kernel_size=(3, 3), stride=(1, 1), padding=(1, 1), bias=False)\n    (41): BatchNorm2d(512, eps=1e-05, momentum=0.1, affine=True)\n    (42): LeakyReLU (0.1)\n  )\n  (parallel1): ModuleList (\n    (0): MaxPool2d (size=(2, 2), stride=(2, 2), dilation=(1, 1))\n    (1): Conv2d(512, 1024, kernel_size=(3, 3), stride=(1, 1), padding=(1, 1), bias=False)\n    (2): BatchNorm2d(1024, eps=1e-05, momentum=0.1, affine=True)\n    (3): LeakyReLU (0.1)\n    (4): Conv2d(1024, 512, kernel_size=(1, 1), stride=(1, 1), bias=False)\n    (5): BatchNorm2d(512, eps=1e-05, momentum=0.1, affine=True)\n    (6): LeakyReLU (0.1)\n    (7): Conv2d(512, 1024, kernel_size=(3, 3), stride=(1, 1), padding=(1, 1), bias=False)\n    (8): BatchNorm2d(1024, eps=1e-05, momentum=0.1, affine=True)\n    (9): LeakyReLU (0.1)\n    (10): Conv2d(1024, 512, kernel_size=(1, 1), stride=(1, 1), bias=False)\n    (11): BatchNorm2d(512, eps=1e-05, momentum=0.1, affine=True)\n    (12): LeakyReLU (0.1)\n    (13): Conv2d(512, 1024, kernel_size=(3, 3), stride=(1, 1), padding=(1, 1), bias=False)\n    (14): BatchNorm2d(1024, eps=1e-05, momentum=0.1, affine=True)\n    (15): LeakyReLU (0.1)\n    (16): Conv2d(1024, 1024, kernel_size=(3, 3), stride=(1, 1), padding=(1, 1), bias=False)\n    (17): BatchNorm2d(1024, eps=1e-05, momentum=0.1, affine=True)\n    (18): LeakyReLU (0.1)\n    (19): Conv2d(1024, 1024, kernel_size=(3, 3), stride=(1, 1), padding=(1, 1), bias=False)\n    (20): BatchNorm2d(1024, eps=1e-05, momentum=0.1, affine=True)\n    (21): LeakyReLU (0.1)\n  )\n  (parallel2): ModuleList (\n    (0): Conv2d(512, 64, kernel_size=(1, 1), stride=(1, 1), bias=False)\n    (1): BatchNorm2d(64, eps=1e-05, momentum=0.1, affine=True)\n    (2): LeakyReLU (0.1)\n    (3): space_to_depth (\n    )\n  )\n  (path2): ModuleList (\n    (0): Conv2d(1280, 1024, kernel_size=(3, 3), stride=(1, 1), padding=(1, 1), bias=False)\n    (1): BatchNorm2d(1024, eps=1e-05, momentum=0.1, affine=True)\n    (2): LeakyReLU (0.1)\n    (3): Conv2d(1024, 425, kernel_size=(1, 1), stride=(1, 1), bias=False)\n  )\n)\n</code></pre>\n<p>I wrote a class to forward an input image to the network. I have got two strategies:</p>\n<ol>\n<li>Without Calling <code>model.eval()</code></li>\n<li>With <code>model.eval()</code> call</li>\n</ol>\n<p>In first strategies, there are no warnings or errors and network prints some outputs(True or Fasle it does  not
…
           self.layers[ln].running_mean.data = torch.from_numpy(w[2])\r\n                self.layers[ln].running_var.data = torch.from_numpy(w[3])\r\n\r\n            elif layer['class_name'] == 'LeakyReLU':\r\n                self.layers[ln] = nn.LeakyReLU(.1)\r\n            elif layer['class_name'] == 'MaxPooling2D':\r\n                self.layers[ln] = nn.MaxPool2d(2, 2)\r\n            elif layer['class_name'] == 'Lambda':\r\n                self.layers[ln] = space_to_depth(2)\r\n```\r\nBy the way here is the network definition of mine:\r\n```\r\nYoloV2 (\r\n  (path1): ModuleList (\r\n    (0): Conv2d(3, 32, kernel_size=(3, 3), stride=(1, 1), padding=(1, 1), bias=False)\r\n    (1): BatchNorm2d(32, eps=1e-05, momentum=0.1, affine=True)\r\n    (2): LeakyReLU (0.1)\r\n    (3): MaxPool2d (size=(2, 2), stride=(2, 2), dilation=(1, 1))\r\n    (4): Conv2d(32, 64, kernel_size=(3, 3), stride=(1, 1), padding=(1, 1), bias=False)\r\n    (5): BatchNorm2d(64, eps=1e-05, momentum=0.1, affine=True)\r\n    (6): LeakyReLU (0.1)\r\n    (7): MaxPool2d (size=(2, 2), stride=(2, 2), dilation=(1, 1))\r\n    (8): Conv2d(64, 128, kernel_size=(3, 3), stride=(1, 1), padding=(1, 1), bias=False)\r\n    (9): BatchNorm2d(128, eps=1e-05, momentum=0.1, affine=True)\r\n    (10): LeakyReLU (0.1)\r\n    (11): Conv2d(128, 64, kernel_size=(1, 1), stride=(1, 1), bias=False)\r\n    (12): BatchNorm2d(64, eps=1e-05, momentum=0.1, affine=True)\r\n    (13): LeakyReLU (0.1)\r\n    (14): Conv2d(64, 128, kernel_size=(3, 3), stride=(1, 1), padding=(1, 1), bias=False)\r\n    (15): BatchNorm2d(128, eps=1e-05, momentum=0.1, affine=True)\r\n    (16): LeakyReLU (0.1)\r\n    (17): MaxPool2d (size=(2, 2), stride=(2, 2), dilation=(1, 1))\r\n    (18): Conv2d(128, 256, kernel_size=(3, 3), stride=(1, 1), padding=(1, 1), bias=False)\r\n    (19): BatchNorm2d(256, eps=1e-05, momentum=0.1, affine=True)\r\n    (20): LeakyReLU (0.1)\r\n    (21): Conv2d(256, 128, kernel_size=(1, 1), stride=(1, 1), bias=False)\r\n    (22): BatchNorm2d(128, eps=1e-05, momentum=0.1, affine=True)\r\n    (23): LeakyReLU (0.1)\r\n    (24): Conv2d(128, 256, kernel_size=(3, 3), stride=(1, 1), padding=(1, 1), bias=False)\r\n    (25): BatchNorm2d(256, eps=1e-05, momentum=0.1, affine=True)\r\n    (26): LeakyReLU (0.1)\r\n    (27): MaxPool2d (size=(2, 2), stride=(2, 2), dilation=(1, 1))\r\n    (28): Conv2d(256, 512, kernel_size=(3, 3), stride=(1, 1), padding=(1, 1), bias=False)\r\n    (29): BatchNorm2d(512, eps=1e-05, momentum=0.1, affine=True)\r\n    (30): LeakyReLU (0.1)\r\n    (31): Conv2d(512, 256, kernel_size=(1, 1), stride=(1, 1), bias=False)\r\n    (32): BatchNorm2d(256, eps=1e-05, momentum=0.1, affine=True)\r\n    (33): LeakyReLU (0.1)\r\n    (34): Conv2d(256, 512, kernel_size=(3, 3), stride=(1, 1), padding=(1, 1), bias=False)\r\n    (35): BatchNorm2d(512, eps=1e-05, momentum=0.1, affine=True)\r\n    (36): LeakyReLU (0.1)\r\n    (37): Conv2d(512, 256, kernel_size=(1, 1), stride=(1, 1), bias=False)\r\n    (38): BatchNorm2d(256, eps=1e-05, momentum=0.1, affine=True)\r\n    (39): LeakyReLU (0.1)\r\n    (40): Conv2d(256, 512, kernel_size=(3, 3), stride=(1, 1), padding=(1, 1), bias=False)\r\n    (41): BatchNorm2d(512, eps=1e-05, momentum=0.1, affine=True)\r\n    (42): LeakyReLU (0.1)\r\n  )\r\n  (parallel1): ModuleList (\r\n    (0): MaxPool2d (size=(2, 2), stride=(2, 2), dilation=(1, 1))\r\n    (1): Conv2d(512, 1024, kernel_size=(3, 3), stride=(1, 1), padding=(1, 1), bias=False)\r\n    (2): BatchNorm2d(1024, eps=1e-05, momentum=0.1, affine=True)\r\n    (3): LeakyReLU (0.1)\r\n    (4): Conv2d(1024, 512, kernel_size=(1, 1), stride=(1, 1), bias=False)\r\n    (5): BatchNorm2d(512, eps=1e-05, momentum=0.1, affine=True)\r\n    (6): LeakyReLU (0.1)\r\n    (7): Conv2d(512, 1024, kernel_size=(3, 3), stride=(1, 1), padding=(1, 1), bias=False)\r\n    (8): BatchNorm2d(1024, eps=1e-05, momentum=0.1, affine=True)\r\n    (9): LeakyReLU (0.1)\r\n    (10): Conv2d(1024, 512, kernel_size=(1, 1), stride=(1, 1), bias=False)\r\n    (11): BatchNorm2d(512, eps=1e-05, momentum=0.1, affine=True)\r\n    (12): LeakyReLU (0.1)\r\n    (13): Conv2d(512, 1024, kernel_size=(3, 3), stride=(1, 1), padding=(1, 1), bias=False)\r\n    (14): BatchNorm2d(1024, eps=1e-05, momentum=0.1, affine=True)\r\n    (15): LeakyReLU (0.1)\r\n    (16): Conv2d(1024, 1024, kernel_size=(3, 3), stride=(1, 1), padding=(1, 1), bias=False)\r\n    (17): BatchNorm2d(1024, eps=1e-05, momentum=0.1, affine=True)\r\n    (18): LeakyReLU (0.1)\r\n    (19): Conv2d(1024, 1024, kernel_size=(3, 3), stride=(1, 1), padding=(1, 1), bias=False)\r\n    (20): BatchNorm2d(1024, eps=1e-05, momentum=0.1, affine=True)\r\n    (21): LeakyReLU (0.1)\r\n  )\r\n  (parallel2): ModuleList (\r\n    (0): Conv2d(512, 64, kernel_size=(1, 1), stride=(1, 1), bias=False)\r\n    (1): BatchNorm2d(64, eps=1e-05, momentum=0.1, affine=True)\r\n    (2): LeakyReLU (0.1)\r\n    (3): space_to_depth (\r\n    )\r\n  )\r\n  (path2): ModuleList (\r\n    (0): Conv2d(1280, 1024, kernel_size=(3, 3), stride=(1, 1), padding=(1, 1), bias=False)\r\n    (1): BatchNorm2d(1024, eps=1e-05, momentum=0.1, affine=True)\r\n    (2): LeakyReLU (0.1)\r\n    (3): Conv2d(1024, 425, kernel_size=(1, 1), stride=(1, 1), bias=False)\r\n  )\r\n)\r\n```\r\nI wrote a class to forward an input image to the network. I have got two strategies:\r\n1. Without Calling `model.eval()`\r\n2. With `model.eval()` call\r\n\r\nIn first strategies, there are no warnings or errors and network prints some outputs(True or Fasle it does  not matter at the moment) and other thing which is s
…
