…
\n<li>PyTorch version: 0.3.1.post2</li>\n<li>How you installed PyTorch: conda install pytorch torchvision cuda91 -c pytorch</li>\n<li>Python version: 3.5</li>\n<li>CUDA/cuDNN version: 9.1</li>\n<li>GPU models and configuration: GTX 650 Ti</li>\n<li>GCC version (if compiling from source): gcc (Ubuntu 5.4.0-6ubuntu1~16.04.6) 5.4.0 20160609</li>\n</ul>\n<p>If I run:<br>\n<code>python detect.py cfg/yolo.cfg yolo.weights data/dog.jpg</code></p>\n<p>This is the output:</p>\n<pre><code>y cfg/yolo.cfg yolo.weights data/dog.jpg\nlayer     filters    size              input                output\n    0 conv     32  3 x 3 / 1   416 x 416 x   3   -&gt;   416 x 416 x  32\n    1 max          2 x 2 / 2   416 x 416 x  32   -&gt;   208 x 208 x  32\n    2 conv     64  3 x 3 / 1   208 x 208 x  32   -&gt;   208 x 208 x  64\n    3 max          2 x 2 / 2   208 x 208 x  64   -&gt;   104 x 104 x  64\n    4 conv    128  3 x 3 / 1   104 x 104 x  64   -&gt;   104 x 104 x 128\n    5 conv     64  1 x 1 / 1   104 x 104 x 128   -&gt;   104 x 104 x  64\n    6 conv    128  3 x 3 / 1   104 x 104 x  64   -&gt;   104 x 104 x 128\n    7 max          2 x 2 / 2   104 x 104 x 128   -&gt;    52 x  52 x 128\n    8 conv    256  3 x 3 / 1    52 x  52 x 128   -&gt;    52 x  52 x 256\n    9 conv    128  1 x 1 / 1    52 x  52 x 256   -&gt;    52 x  52 x 128\n   10 conv    256  3 x 3 / 1    52 x  52 x 128   -&gt;    52 x  52 x 256\n   11 max          2 x 2 / 2    52 x  52 x 256   -&gt;    26 x  26 x 256\n   12 conv    512  3 x 3 / 1    26 x  26 x 256   -&gt;    26 x  26 x 512\n   13 conv    256  1 x 1 / 1    26 x  26 x 512   -&gt;    26 x  26 x 256\n   14 conv    512  3 x 3 / 1    26 x  26 x 256   -&gt;    26 x  26 x 512\n   15 conv    256  1 x 1 / 1    26 x  26 x 512   -&gt;    26 x  26 x 256\n   16 conv    512  3 x 3 / 1    26 x  26 x 256   -&gt;    26 x  26 x 512\n   17 max          2 x 2 / 2    26 x  26 x 512   -&gt;    13 x  13 x 512\n   18 conv   1024  3 x 3 / 1    13 x  13 x 512   -&gt;    13 x  13 x1024\n   19 conv    512  1 x 1 / 1    13 x  13 x1024   -&gt;    13 x  13 x 512\n   20 conv   1024  3 x 3 / 1    13 x  13 x 512   -&gt;    13 x  13 x1024\n   21 conv    512  1 x 1 / 1    13 x  13 x1024   -&gt;    13 x  13 x 512\n   22 conv   1024  3 x 3 / 1    13 x  13 x 512   -&gt;    13 x  13 x1024\n   23 conv   1024  3 x 3 / 1    13 x  13 x1024   -&gt;    13 x  13 x1024\n   24 conv   1024  3 x 3 / 1    13 x  13 x1024   -&gt;    13 x  13 x1024\n   25 route  16\n   26 conv     64  1 x 1 / 1    26 x  26 x 512   -&gt;    26 x  26 x  64\n   27 reorg              / 2    26 x  26 x  64   -&gt;    13 x  13 x 256\n   28 route  27 24\n   29 conv   1024  3 x 3 / 1    13 x  13 x1280   -&gt;    13 x  13 x1024\n   30 conv    425  1 x 1 / 1    13 x  13 x1024   -&gt;    13 x  13 x 425\n   31 detection\n/home/raggot/Projects/Github/pytorch-yolo2/cfg.py:175: UserWarning: src is not broadcastable to dst, but they have the same number of elements.  Falling back to deprecated pointwise behavior.\n  conv_model.weight.data.copy_(torch.from_numpy(buf[start:start+num_w])); start = start + num_w\n/home/raggot/Projects/Github/pytorch-yolo2/cfg.
…
 am having an issue running Pytorch for the first time. This is my configuration:\n\nOS: Ubuntu 16.04\nPyTorch version: 0.3.1.post2\nHow you installed PyTorch: conda install pytorch torchvision cuda91 -c pytorch\nPython version: 3.5\nCUDA/cuDNN version: 9.1\nGPU models and configuration: GTX 650 Ti\nGCC version (if compiling from source): gcc (Ubuntu 5.4.0-6ubuntu1~16.04.6) 5.4.0 20160609\n\nIf I run:\npython detect.py cfg/yolo.cfg yolo.weights data/dog.jpg\nThis is the output:\ny cfg/yolo.cfg yolo.weights data/dog.jpg\nlayer     filters    size              input                output\n    0 conv     32  3 x 3 / 1   416 x 416 x   3   ->   416 x 416 x  32\n    1 max          2 x 2 / 2   416 x 416 x  32   ->   208 x 208 x  32\n    2 conv     64  3 x 3 / 1   208 x 208 x  32   ->   208 x 208 x  64\n    3 max          2 x 2 / 2   208 x 208 x  64   ->   104 x 104 x  64\n    4 conv    128  3 x 3 / 1   104 x 104 x  64   ->   104 x 104 x 128\n    5 conv     64  1 x 1 / 1   104 x 104 x 128   ->   104 x 104 x  64\n    6 conv    128  3 x 3 / 1   104 x 104 x  64   ->   104 x 104 x 128\n    7 max          2 x 2 / 2   104 x 104 x 128   ->    52 x  52 x 128\n    8 conv    256  3 x 3 / 1    52 x  52 x 128   ->    52 x  52 x 256\n    9 conv    128  1 x 1 / 1    52 x  52 x 256   ->    52 x  52 x 128\n   10 conv    256  3 x 3 / 1    52 x  52 x 128   ->    52 x  52 x 256\n   11 max          2 x 2 / 2    52 x  52 x 256   ->    26 x  26 x 256\n   12 conv    512  3 x 3 / 1    26 x  26 x 256   ->    26 x  26 x 512\n   13 conv    256  1 x 1 / 1    26 x  26 x 512   ->    26 x  26 x 256\n   14 conv    512  3 x 3 / 1    26 x  26 x 256   ->    26 x  26 x 512\n   15 conv    256  1 x 1 / 1    26 x  26 x 512   ->    26 x  26 x 256\n   16 conv    512  3 x 3 / 1    26 x  26 x 256   ->    26 x  26 x 512\n   17 max          2 x 2 / 2    26 x  26 x 512   ->    13 x  13 x 512\n   18 conv   1024  3 x 3 / 1    13 x  13 x 512   ->    13 x  13 x1024\n   19 conv    512  1 x 1 / 1    13 x  13 x1024   ->    13 x  13 x 512\n   20 conv   1024  3 x 3 / 1    13 x  13 x 512   ->    13 x  13 x1024\n   21 conv    512  1 x 1 / 1    13 x  13 x1024   ->    13 x  13 x 512\n   22 conv   1024  3 x 3 / 1    13 x  13 x 512   ->    13 x  13 x1024\n   23 conv   1024  3 x 3 / 1    13 x  13 x1024   ->    13 x  13 x1024\n   24 conv   1024  3 x 3 / 1    13 x  13 x1024   ->    13 x  13 x1024\n   25 route  16\n   26 conv     64  1 x 1 / 1    26 x  26 x 512   ->    26 x  26 x  64\n   27 reorg              / 2    26 x  26 x  64   ->    13 x  13 x 256\n   28 route  27 24\n   29 conv   1024  3 x 3 / 1    13 x  13 x1280   ->    13 x  13 x1024\n   30 conv    425  1 x 1 / 1    13 x  13 x1024   ->    13 x  13 x 425\n   31 detection\n/home/raggot/Projects/Github/pytorch-yolo2/cfg.py:175: UserWarning: src is not broadcastable to dst, but they have the same number of elements.  Falling back to deprecated pointwise behavior.\n  conv_model.weight.data.copy_(torch.from_numpy(buf[start:start+num_w])); start = start + num_w\n/home/raggot/Projects/Github/pytorch-yolo2/cfg.py:
…
e. This is my configuration:\r\n- OS: Ubuntu 16.04\r\n- PyTorch version: 0.3.1.post2\r\n- How you installed PyTorch: conda install pytorch torchvision cuda91 -c pytorch\r\n- Python version: 3.5\r\n- CUDA/cuDNN version: 9.1\r\n- GPU models and configuration: GTX 650 Ti\r\n- GCC version (if compiling from source): gcc (Ubuntu 5.4.0-6ubuntu1~16.04.6) 5.4.0 20160609\r\n\r\nIf I run:\r\n`python detect.py cfg/yolo.cfg yolo.weights data/dog.jpg`\r\n\r\nThis is the output:\r\n```\r\ny cfg/yolo.cfg yolo.weights data/dog.jpg\r\nlayer     filters    size              input                output\r\n    0 conv     32  3 x 3 / 1   416 x 416 x   3   ->   416 x 416 x  32\r\n    1 max          2 x 2 / 2   416 x 416 x  32   ->   208 x 208 x  32\r\n    2 conv     64  3 x 3 / 1   208 x 208 x  32   ->   208 x 208 x  64\r\n    3 max          2 x 2 / 2   208 x 208 x  64   ->   104 x 104 x  64\r\n    4 conv    128  3 x 3 / 1   104 x 104 x  64   ->   104 x 104 x 128\r\n    5 conv     64  1 x 1 / 1   104 x 104 x 128   ->   104 x 104 x  64\r\n    6 conv    128  3 x 3 / 1   104 x 104 x  64   ->   104 x 104 x 128\r\n    7 max          2 x 2 / 2   104 x 104 x 128   ->    52 x  52 x 128\r\n    8 conv    256  3 x 3 / 1    52 x  52 x 128   ->    52 x  52 x 256\r\n    9 conv    128  1 x 1 / 1    52 x  52 x 256   ->    52 x  52 x 128\r\n   10 conv    256  3 x 3 / 1    52 x  52 x 128   ->    52 x  52 x 256\r\n   11 max          2 x 2 / 2    52 x  52 x 256   ->    26 x  26 x 256\r\n   12 conv    512  3 x 3 / 1    26 x  26 x 256   ->    26 x  26 x 512\r\n   13 conv    256  1 x 1 / 1    26 x  26 x 512   ->    26 x  26 x 256\r\n   14 conv    512  3 x 3 / 1    26 x  26 x 256   ->    26 x  26 x 512\r\n   15 conv    256  1 x 1 / 1    26 x  26 x 512   ->    26 x  26 x 256\r\n   16 conv    512  3 x 3 / 1    26 x  26 x 256   ->    26 x  26 x 512\r\n   17 max          2 x 2 / 2    26 x  26 x 512   ->    13 x  13 x 512\r\n   18 conv   1024  3 x 3 / 1    13 x  13 x 512   ->    13 x  13 x1024\r\n   19 conv    512  1 x 1 / 1    13 x  13 x1024   ->    13 x  13 x 512\r\n   20 conv   1024  3 x 3 / 1    13 x  13 x 512   ->    13 x  13 x1024\r\n   21 conv    512  1 x 1 / 1    13 x  13 x1024   ->    13 x  13 x 512\r\n   22 conv   1024  3 x 3 / 1    13 x  13 x 512   ->    13 x  13 x1024\r\n   23 conv   1024  3 x 3 / 1    13 x  13 x1024   ->    13 x  13 x1024\r\n   24 conv   1024  3 x 3 / 1    13 x  13 x1024   ->    13 x  13 x1024\r\n   25 route  16\r\n   26 conv     64  1 x 1 / 1    26 x  26 x 512   ->    26 x  26 x  64\r\n   27 reorg              / 2    26 x  26 x  64   ->    13 x  13 x 256\r\n   28 route  27 24\r\n   29 conv   1024  3 x 3 / 1    13 x  13 x1280   ->    13 x  13 x1024\r\n   30 conv    425  1 x 1 / 1    13 x  13 x1024   ->    13 x  13 x 425\r\n   31 detection\r\n/home/raggot/Projects/Github/pytorch-yolo2/cfg.py:175: UserWarning: src is not broadcastable to dst, but they have the same number of elements.  Falling back to deprecated pointwise behavior.\r\n  conv_model.weight.data.copy_(torch.from_numpy(buf[start:start+num_w])); start = start + num_w\r\n/home/raggot/Projects/Github/pytorch-yolo2
…
