…
/privacy}", "received_events_url": "https://api.github.com/users/jaikumarm/received_events", "type": "User", "site_admin": false}, "created_at": "2018-04-06T21:53:28Z", "updated_at": "2018-04-06T21:53:28Z", "author_association": "NONE", "body_html": "<p>Same here, installed tf and keras from conda.</p>\n<pre><code>_________________________________________________________________\n4/6/2018 2:46:52 PMLayer (type)                 Output Shape              Param #\n4/6/2018 2:46:52 PM=================================================================\n4/6/2018 2:46:52 PMreshape_1 (Reshape)          (None, 16, 5)             0\n4/6/2018 2:46:52 PM_________________________________________________________________\n4/6/2018 2:46:52 PMconv1d_1_1 (Conv1D)          (None, 16, 512)           5632\n4/6/2018 2:46:52 PM_________________________________________________________________\n4/6/2018 2:46:52 PMactivation_1_1 (PReLU)       (None, 16, 512)           8192\n4/6/2018 2:46:52 PM_________________________________________________________________\n4/6/2018 2:46:52 PMmax_pooling_1_1 (MaxPooling1 (None, 8, 512)            0\n4/6/2018 2:46:52 PM_________________________________________________________________\n4/6/2018 2:46:52 PMdropout_1_1 (Dropout)        (None, 8, 512)            0\n4/6/2018 2:46:52 PM_________________________________________________________________\n4/6/2018 2:46:52 PMflatten_1_1 (Flatten)        (None, 4096)              0\n4/6/2018 2:46:52 PM_________________________________________________________________\n4/6/2018 2:46:52 PMdense_1_2 (Dense)            (None, 1)                 4097\n4/6/2018 2:46:52 PM_________________________________________________________________\n4/6/2018 2:46:52 PMactivationn_1_2 (Activation) (None, 1)                 0\n4/6/2018 2:46:52 PM=================================================================\n4/6/2018 2:46:52 PMTotal params: 17,921\n4/6/2018 2:46:52 PMTrainable params: 17,921\n4/6/2018 2:46:52 PMNon-trainable params: 0\n4/6/2018 2:46:52 PM_________________________________________________________________\n4/6/2018 2:46:52 PM2018-04-06 21:46:52.907397: I tensorflow/core/platform/cpu_feature_guard.cc:1
…
