…
ers.dense(prelogits, 10, activation=tf.nn.softmax)\n    \n    return logits\n\npred = tf.contrib.keras.layers.Lambda(simple_model)(features)\n</code></pre>\n<p>Both of them then made with <code>model = kmodels.Model(inputs=features, outputs=pred)</code></p>\n<p>Nevertheless, when I use <code>model.summary()</code> , Kesar model give me correct output:</p>\n<pre><code>_________________________________________________________________\nLayer (type)                 Output Shape              Param #   \n=================================================================\ninput_1 (InputLayer)         (None, 28, 28, 1)         0         \n_________________________________________________________________\nconv2d_1 (Conv2D)            (None, 13, 13, 64)        640       \n_________________________________________________________________\nmax_pooling2d_1 (MaxPooling2 (None, 6, 6, 64)          0         \n_________________________________________________________________\nconv2d_2 (Conv2D)            (None, 2, 2, 32)          18464     \n_________________________________________________________________\nflatten_1 (Flatten)          (None, 128)               0         \n_________________________________________________________________\ndense_1 (Dense)              (None, 128)               16512     \n_________________________________________________________________\ndense_2 (Dense)              (None, 10)                1290      \n=================================================================\nTotal params: 36,906\nTrainable params: 36,906\nNon-trainable params: 0\n_________________________________________________________________\n</code></pre>\n<p><strong>but</strong> TF one, give only:</p>\n<pre><code>_________________________________________________________________\nLayer (type)                 Output Shape              Param #   \n=================================================================\ninput_1 (InputLayer)         (None, 28, 28, 1)         0         \n_________________________________________________________________\nlambda_1 (Lambda)            (None, 10)                0         \n=================================================================\nTotal params: 0\nTrainable params: 0\nNon-trainable params: 0\n_________________________________________________________________\n</code></pre>\n<p>Is it correct, that TF-Keras cannot see TF variables and optimize them? So we still have separated Tensorflow an Keras frameworks?<br>\nWhy cannot I use TF as Keras backend?<
…
