…
h by conda on unbuntu.  When I run the code of <em>Neural Networks</em> of the tutorial. An Error <strong>Process finished with exit code 139 (interrupted by signal 11: SIGSEGV)</strong> reported by PyCharm.  In the gdb mode, the Error  is <em>Program received signal SIGSEGV, Segmentation fault.</em> and seems point to \"torch/lib/libATen.so\".  My GCC Version is GCC 4.8.4. Need Update?</p>\n<h2>Code example</h2>\n<p>This is gdb Error Info:</p>\n<pre><code>[Thread debugging using libthread_db enabled]\nUsing host libthread_db library \"/lib/x86_64-linux-gnu/libthread_db.so.1\".\nNet(\n  (conv1): Conv2d(1, 6, kernel_size=(5, 5), stride=(1, 1))\n  (conv2): Conv2d(6, 16, kernel_size=(5, 5), stride=(1, 1))\n  (fc1): Linear(in_features=400, out_features=120, bias=True)\n  (fc2): Linear(in_features=120, out_features=84, bias=True)\n  (fc3): Linear(in_features=84, out_features=10, bias=True)\n)\n10\n(6, 1, 5, 5)\n[New Thread 0x7fffba86e700 (LWP 25754)]\nTrue\n[New Thread 0x7fffba06c780 (LWP 25755)]\n[New Thread 0x7fffb9c6b800 (LWP 25756)]\n[New Thread 0x7fffb986a880 (LWP 25757)]\n[New Thread 0x7fffb9469900 (LWP 25758)]\n[New Thread 0x7fffb9068980 (LWP 25759)]\n[New Thread 0x7fffb8c67a00 (LWP 25760)]\n[New Thread 0x7fffb8866a80 (LWP 25761)]\n
…
ort description.\r\nI install Pytorch by conda on unbuntu.  When I run the code of *Neural Networks* of the tutorial. An Error **Process finished with exit code 139 (interrupted by signal 11: SIGSEGV)** reported by PyCharm.  In the gdb mode, the Error  is *Program received signal SIGSEGV, Segmentation fault.* and seems point to \"torch/lib/libATen.so\".  My GCC Version is GCC 4.8.4. Need Update?\r\n## Code example\r\nThis is gdb Error Info:\r\n```\r\n[Thread debugging using libthread_db enabled]\r\nUsing host libthread_db library \"/lib/x86_64-linux-gnu/libthread_db.so.1\".\r\nNet(\r\n  (conv1): Conv2d(1, 6, kernel_size=(5, 5), stride=(1, 1))\r\n  (conv2): Conv2d(6, 16, kernel_size=(5, 5), stride=(1, 1))\r\n  (fc1): Linear(in_features=400, out_features=120, bias=True)\r\n  (fc2): Linear(in_features=120, out_features=84, bias=True)\r\n  (fc3): Linear(in_features=84, out_features=10, bias=True)\r\n)\r\n10\r\n(6, 1, 5, 5)\r\n[New Thread 0x7fffba86e700 (LWP 25754)]\r\nTrue\r\n[New Thread 0x7fffba06c780 (LWP 25755)]\r\n[New Thread 0x7fffb9c6b800 (LWP 25756)]\r\n[New Thread 0x7fffb986a880 (LWP 25757)]\r\n[New Thread 0x7fffb9469900 (LWP 25758)]\r\n[New Thread 0x7fffb9068980 (LWP 25759)]\r\n[New Thread 0x7fffb8c67a00 (LWP 25760)]\r\n[New Thread 0x7ff
…
