…
tion resources online at:\n&lt;http://www.gnu.org/software/gdb/documentation/&gt;.\nFor help, type \"help\".\nType \"apropos word\" to search for commands related to \"word\"...\nReading symbols from python...done.\n(gdb) r train.py --ngpu 0 --batch_size 8 data cifar10\nStarting program: /home/alex/anaconda3/bin/python train.py --ngpu 0 --batch_size 8 data cifar10\n[Thread debugging using libthread_db enabled]\nUsing host libthread_db library \"/lib/x86_64-linux-gnu/libthread_db.so.1\".\nFiles already downloaded and verified\nFiles already downloaded and verified\nCifarResNeXt (\n  (conv_1_3x3): Conv2d(3, 64, kernel_size=(3, 3), stride=(1, 1), padding=(1, 1), bias=False)\n  (bn_1): BatchNorm2d(64, eps=1e-05, momentum=0.1, affine=True)\n  (stage_1): Sequential (\n    (stage_1_bottleneck_0): ResNeXtBottleneck (\n      (conv_reduce): Conv2d(64, 512, kernel_size=(1, 1), stride=(1, 1), bias=False)\n      (bn_reduce): BatchNorm2d(512, eps=1e-05, momentum=0.1, affine=True)\n      (conv_conv): Conv2d(512, 512, kernel_size=(3, 3), stride=(1, 1), padding=(1, 1), groups=8, bias=False)\n      (bn): BatchNorm2d(512, eps=1e-05, momentum=0.1, affine=True)\n      (conv_expand): Conv2d(512, 256, kernel_size=(1, 1), stride=(1, 1), bias=False)\n      (bn_expand): BatchNorm2d(256, eps=1e-05, momentum=0.1, affine=True)\n      (shortcut): Sequential (\n        (shortcut_conv): Conv2d(64, 256, kernel_size=(1, 1), stride=(1, 1), bias=False)\n        (shortcut_bn): BatchNorm2d(256, eps=1e-05, momentum=0.1, affine=True)\n      )\n    )\n    (stage_1_bottleneck_1): ResNeXtBottleneck (\n      (conv_reduce): Conv2d(256, 512, kernel_size=(1, 1), stride=(1, 1), bias=False)\n      (bn_reduce): BatchNorm2d(512, eps=1e-05, momentum=0.1, affine=True)\n      (conv_conv): Conv2d(512, 512, kernel_size=(3, 3), stride=(1, 1), padding=(1, 1), groups=8, bias=False)\n      (bn): BatchNorm2d(512, eps=1e-05, momentum=0.1, affine=True)\n      (conv_expand): Conv2d(512, 256, kernel_size=(1, 1), stride=(1, 1), bias=False)\n      (bn_expand): BatchNorm2d(256, eps=1e-05, momentum=0.1, affine=True)\n      (shortcut): Sequential (\n      )\n    )\n    (stage_1_bottleneck_2): ResNeXtBottleneck (\n      (conv_reduce): Conv2d(256, 512, kernel_size=(1, 1), stride=(1, 1), bias=False)\n      (bn_reduce): BatchNorm2d(512, eps=1e-05, momentum=0.1, affine=True)\n      (conv_conv): Conv2d(512, 512, kernel_size=(3, 3), stride=(1, 1), padding=(1, 1), groups=8, bias=False)\n      (bn): BatchNorm2d(512, eps=1e-05, momentum=0.1, affine=True)\n      (conv_expand): Conv2d(512, 256, kernel_size=(1, 1), stride=(1, 1), bias=False)\n      (bn_expand): BatchNorm2d(256, eps=1e-05, momentum=0.1, affine=True)\n      (shortcut): Sequential (\n      )\n    )\n  )\n  (stage_2): Sequential (\n    (stage_2_bottleneck_0): ResNeXtBottleneck (\n      (conv_reduce): Conv2d(256, 1024, kernel_size=(1, 1), stride=(1, 1), bias=False)\n      (bn_reduce): BatchNorm2d(1024, eps=1e-05, momentum=0.1, affine=True)\n      (conv_conv): Conv2d(1024, 1024, kernel_size=(3, 3), stride=(2, 2), padding=(1, 1), groups=8, bias=False)\n      (bn): BatchNorm2d(1024, eps=1e-05, momentum=0.1, affine=True)\n      (conv_expand): Conv2d(1024, 512, kernel_size=(1, 1), stride=(1, 1), bias=False)\n      (bn_expand): BatchNorm2d(512, eps=1e-05, momentum=0.1, affine=True)\n      (shortcut): Sequential (\n        (shortcut_conv): Conv2d(256, 512, kernel_size=(1, 1), stride=(2, 2), bias=False)\n        (shortcut_bn): BatchNorm2d(512, eps=1e-05, momentum=0.1, affine=True)\n      )\n    )\n    (stage_2_bottleneck_1): ResNeXtBottleneck (\n      (conv_reduce): Conv2d(512, 1024, kernel_size=(1, 1), stride=(1, 1), bias=False)\n      (bn_reduce): BatchNorm2d(1024, eps=1e-05, momentum=0.1, affine=True)\n      (conv_conv): Conv2d(1024, 1024, kernel_size=(3, 3), stride=(1, 1), padding=(1, 1), groups=8, bias=False)\n      (bn): BatchNorm2d(1024, eps=1e-05, momentum=0.1, affine=True)\n      (conv_expand): Conv2d(1024, 512, kernel_size=(1, 1), stride=(1, 1), bias=False)\n      (bn_expand): BatchNorm2d(512, eps=1e-05, momentum=0.1, affine=True)\n      (shortcut): Sequential (\n      )\n    )\n    (stage_2_bottleneck_2): ResNeXtBottleneck (\n      (conv_reduce): Conv2d(512, 1024, kernel_size=(1, 1), stride=(1, 1), bias=False)\n      (bn_reduce): BatchNorm2d(1024, eps=1e-05, momentum=0.1, affine=True)\n      (conv_conv): Conv2d(1024, 1024, kernel_size=(3, 3), stride=(1, 1), padding=(1, 1), groups=8, bias=False)\n      (bn): BatchNorm2d(1024, eps=1e-05, momentum=0.1, affine=True)\n      (conv_expand): Conv2d(1024, 512, kernel_size=(1, 1), stride=(1, 1), bias=False)\n      (bn_expand): BatchNorm2d(512, eps=1e-05, momentum=0.1, affine=True)\n      (shortcut): Sequential (\n      )\n    )\n  )\n  (stage_3): Sequential (\n    (stage_3_bottleneck_0): ResNeXtBottleneck (\n      (conv_reduce): Conv2d(512, 2048, kernel_size=(1, 1), stride=(1, 1), bias=False)\n      (bn_reduce): BatchNorm2d(2048, eps=1e-05, momentum=0.1, affine=True)\n      (conv_conv): Conv2d(2048, 2048, kernel_size=(3, 3), stride=(2, 2), padding=(1, 1), groups=8, bias=False)\n      (bn): BatchNorm2d(2048, eps=1e-05, momentum=0.1, affine=True)\n      (conv_expand): Conv2d(2048, 1024, kernel_size=(1, 1), stride=(1, 1), bias=False)\n      (bn_expand): BatchNorm2d(1024, eps=1e-05, momentum=0.1, affine=True)\n      (shortcut): Sequential (\n        (shortcut_conv): Conv2d(512, 1024, kernel_size=(1, 1), stride=(2, 2), bias=False)\n        (shortcut_bn): BatchNorm2d(1024, eps=1e-05, momentum=0.1, affine=True)\n      )\n    )\n    (stage_3_bottleneck_1): ResNeXtBottleneck (\n      (conv_reduce): Conv2d(1024, 2048, kernel_size=(1, 1), stride=(1, 1), bias=False)\n      (bn_reduce): BatchNorm2d(2048, eps=1e-05, momentum=0.1, affine=True)\n      (conv_conv): Conv2d(2048, 2048, kernel_size=(3, 3), stride=(1, 1), padding=(1, 1), groups=8, bias=False)\n      (bn): BatchNorm2d(2048, eps=1e-05, momentum=0.1, affine=True)\n      (conv_expand): Conv2d(2048, 1024, kernel_size=(1, 1), stride=(1, 1), bias=False)\n      (bn_expand): BatchNorm2d(1024, eps=1e-05, momentum=0.1, affine=True)\n      (shortcut): Sequential (\n      )\n    )\n    (stage_3_bottleneck_2): ResNeXtBottleneck (\n      (conv_reduce): Conv2d(1024, 2048, kernel_size=(1, 1), stride=(1, 1), bias=False)\n      (bn_reduce): BatchNorm2d(2048, eps=1e-05, momentum=0.1, affine=True)\n      (conv_conv): Conv2d(2048, 2048, kernel_size=(3, 3), stride=(1, 1), padding=(1, 1), groups=8, bias=False)\n      (bn): BatchNorm2d(2048, eps=1e-05, momentum=0.1, affine=True)\n      (conv_expand): Conv2d(2048, 1024, kernel_size=(1, 1), stride=(1, 1), bias=False)\n      (bn_expand): BatchNorm2d(1024, eps=1e-05, momentum=0.1, affine=True)\n      (shortcut): Sequential (\n      )\n    )\n  )\n  (classifier): Linear (1024 -&gt; 10)\n)\n[New Thread 0x7fffbefa5780 (LWP 18919)]\n[New Thread 0x7fffbeba4800 (LWP 18920)]\n[New Thread 0x7fffbe7a3880 (LWP 18921)]\n[New Thread 0x7fffab9b1700 (LWP 18923)]\n[New Thread 0x7fffab1af980 (LWP 18924)]\n[New Thread 0x7fffaadaea00 (LWP 18925)]\n[New Thread 0
…
ine at:\r\n<http://www.gnu.org/software/gdb/documentation/>.\r\nFor help, type \"help\".\r\nType \"apropos word\" to search for commands related to \"word\"...\r\nReading symbols from python...done.\r\n(gdb) r train.py --ngpu 0 --batch_size 8 data cifar10\r\nStarting program: /home/alex/anaconda3/bin/python train.py --ngpu 0 --batch_size 8 data cifar10\r\n[Thread debugging using libthread_db enabled]\r\nUsing host libthread_db library \"/lib/x86_64-linux-gnu/libthread_db.so.1\".\r\nFiles already downloaded and verified\r\nFiles already downloaded and verified\r\nCifarResNeXt (\r\n  (conv_1_3x3): Conv2d(3, 64, kernel_size=(3, 3), stride=(1, 1), padding=(1, 1), bias=False)\r\n  (bn_1): BatchNorm2d(64, eps=1e-05, momentum=0.1, affine=True)\r\n  (stage_1): Sequential (\r\n    (stage_1_bottleneck_0): ResNeXtBottleneck (\r\n      (conv_reduce): Conv2d(64, 512, kernel_size=(1, 1), stride=(1, 1), bias=False)\r\n      (bn_reduce): BatchNorm2d(512, eps=1e-05, momentum=0.1, affine=True)\r\n      (conv_conv): Conv2d(512, 512, kernel_size=(3, 3), stride=(1, 1), padding=(1, 1), groups=8, bias=False)\r\n      (bn): BatchNorm2d(512, eps=1e-05, momentum=0.1, affine=True)\r\n      (conv_expand): Conv2d(512, 256, kernel_size=(1, 1), stride=(1, 1), bias=False)\r\n      (bn_expand): BatchNorm2d(256, eps=1e-05, momentum=0.1, affine=True)\r\n      (shortcut): Sequential (\r\n        (shortcut_conv): Conv2d(64, 256, kernel_size=(1, 1), stride=(1, 1), bias=False)\r\n        (shortcut_bn): BatchNorm2d(256, eps=1e-05, momentum=0.1, affine=True)\r\n      )\r\n    )\r\n    (stage_1_bottleneck_1): ResNeXtBottleneck (\r\n      (conv_reduce): Conv2d(256, 512, kernel_size=(1, 1), stride=(1, 1), bias=False)\r\n      (bn_reduce): BatchNorm2d(512, eps=1e-05, momentum=0.1, affine=True)\r\n      (conv_conv): Conv2d(512, 512, kernel_size=(3, 3), stride=(1, 1), padding=(1, 1), groups=8, bias=False)\r\n      (bn): BatchNorm2d(512, eps=1e-05, momentum=0.1, affine=True)\r\n      (conv_expand): Conv2d(512, 256, kernel_size=(1, 1), stride=(1, 1), bias=False)\r\n      (bn_expand): BatchNorm2d(256, eps=1e-05, momentum=0.1, affine=True)\r\n      (shortcut): Sequential (\r\n      )\r\n    )\r\n    (stage_1_bottleneck_2): ResNeXtBottleneck (\r\n      (conv_reduce): Conv2d(256, 512, kernel_size=(1, 1), stride=(1, 1), bias=False)\r\n      (bn_reduce): BatchNorm2d(512, eps=1e-05, momentum=0.1, affine=True)\r\n      (conv_conv): Conv2d(512, 512, kernel_size=(3, 3), stride=(1, 1), padding=(1, 1), groups=8, bias=False)\r\n      (bn): BatchNorm2d(512, eps=1e-05, momentum=0.1, affine=True)\r\n      (conv_expand): Conv2d(512, 256, kernel_size=(1, 1), stride=(1, 1), bias=False)\r\n      (bn_expand): BatchNorm2d(256, eps=1e-05, momentum=0.1, affine=True)\r\n      (shortcut): Sequential (\r\n      )\r\n    )\r\n  )\r\n  (stage_2): Sequential (\r\n    (stage_2_bottleneck_0): ResNeXtBottleneck (\r\n      (conv_reduce): Conv2d(256, 1024, kernel_size=(1, 1), stride=(1, 1), bias=False)\r\n      (bn_reduce): BatchNorm2d(1024, eps=1e-05, momentum=0.1, affine=True)\r\n      (conv_conv): Conv2d(1024, 1024, kernel_size=(3, 3), stride=(2, 2), padding=(1, 1), groups=8, bias=False)\r\n      (bn): BatchNorm2d(1024, eps=1e-05, momentum=0.1, affine=True)\r\n      (conv_expand): Conv2d(1024, 512, kernel_size=(1, 1), stride=(1, 1), bias=False)\r\n      (bn_expand): BatchNorm2d(512, eps=1e-05, momentum=0.1, affine=True)\r\n      (shortcut): Sequential (\r\n        (shortcut_conv): Conv2d(256, 512, kernel_size=(1, 1), stride=(2, 2), bias=False)\r\n        (shortcut_bn): BatchNorm2d(512, eps=1e-05, momentum=0.1, affine=True)\r\n      )\r\n    )\r\n    (stage_2_bottleneck_1): ResNeXtBottleneck (\r\n      (conv_reduce): Conv2d(512, 1024, kernel_size=(1, 1), stride=(1, 1), bias=False)\r\n      (bn_reduce): BatchNorm2d(1024, eps=1e-05, momentum=0.1, affine=True)\r\n      (conv_conv): Conv2d(1024, 1024, kernel_size=(3, 3), stride=(1, 1), padding=(1, 1), groups=8, bias=False)\r\n      (bn): BatchNorm2d(1024, eps=1e-05, momentum=0.1, affine=True)\r\n      (conv_expand): Conv2d(1024, 512, kernel_size=(1, 1), stride=(1, 1), bias=False)\r\n      (bn_expand): BatchNorm2d(512, eps=1e-05, momentum=0.1, affine=True)\r\n      (shortcut): Sequential (\r\n      )\r\n    )\r\n    (stage_2_bottleneck_2): ResNeXtBottleneck (\r\n      (conv_reduce): Conv2d(512, 1024, kernel_size=(1, 1), stride=(1, 1), bias=False)\r\n      (bn_reduce): BatchNorm2d(1024, eps=1e-05, momentum=0.1, affine=True)\r\n      (conv_conv): Conv2d(1024, 1024, kernel_size=(3, 3), stride=(1, 1), padding=(1, 1), groups=8, bias=False)\r\n      (bn): BatchNorm2d(1024, eps=1e-05, momentum=0.1, affine=True)\r\n      (conv_expand): Conv2d(1024, 512, kernel_size=(1, 1), stride=(1, 1), bias=False)\r\n      (bn_expand): BatchNorm2d(512, eps=1e-05, momentum=0.1, affine=True)\r\n      (shortcut): Sequential (\r\n      )\r\n    )\r\n  )\r\n  (stage_3): Sequential (\r\n    (stage_3_bottleneck_0): ResNeXtBottleneck (\r\n      (conv_reduce): Conv2d(512, 2048, kernel_size=(1, 1), stride=(1, 1), bias=False)\r\n      (bn_reduce): BatchNorm2d(2048, eps=1e-05, momentum=0.1, affine=True)\r\n      (conv_conv): Conv2d(2048, 2048, kernel_size=(3, 3), stride=(2, 2), padding=(1, 1), groups=8, bias=False)\r\n      (bn): BatchNorm2d(2048, eps=1e-05, momentum=0.1, affine=True)\r\n      (conv_expand): Conv2d(2048, 1024, kernel_size=(1, 1), stride=(1, 1), bias=False)\r\n      (bn_expand): BatchNorm2d(1024, eps=1e-05, momentum=0.1, affine=True)\r\n      (shortcut): Sequential (\r\n        (shortcut_conv): Conv2d(512, 1024, kernel_size=(1, 1), stride=(2, 2), bias=False)\r\n        (shortcut_bn): BatchNorm2d(1024, eps=1e-05, momentum=0.1, affine=True)\r\n      )\r\n    )\r\n    (stage_3_bottleneck_1): ResNeXtBottleneck (\r\n      (conv_reduce): Conv2d(1024, 2048, kernel_size=(1, 1), stride=(1, 1), bias=False)\r\n      (bn_reduce): BatchNorm2d(2048, eps=1e-05, momentum=0.1, affine=True)\r\n      (conv_conv): Conv2d(2048, 2048, kernel_size=(3, 3), stride=(1, 1), padding=(1, 1), groups=8, bias=False)\r\n      (bn): BatchNorm2d(2048, eps=1e-05, momentum=0.1, affine=True)\r\n      (conv_expand): Conv2d(2048, 1024, kernel_size=(1, 1), stride=(1, 1), bias=False)\r\n      (bn_expand): BatchNorm2d(1024, eps=1e-05, momentum=0.1, affine=True)\r\n      (shortcut): Sequential (\r\n      )\r\n    )\r\n    (stage_3_bottleneck_2): ResNeXtBottleneck (\r\n      (conv_reduce): Conv2d(1024, 2048, kernel_size=(1, 1), stride=(1, 1), bias=False)\r\n      (bn_reduce): BatchNorm2d(2048, eps=1e-05, momentum=0.1, affine=True)\r\n      (conv_conv): Conv2d(2048, 2048, kernel_size=(3, 3), stride=(1, 1), padding=(1, 1), groups=8, bias=False)\r\n      (bn): BatchNorm2d(2048, eps=1e-05, momentum=0.1, affine=True)\r\n      (conv_expand): Conv2d(2048, 1024, kernel_size=(1, 1), stride=(1, 1), bias=False)\r\n      (bn_expand): BatchNorm2d(1024, eps=1e-05, momentum=0.1, affine=True)\r\n      (shortcut): Sequential (\r\n      )\r\n    )\r\n  )\r\n  (classifier): Linear (1024 -> 10)\r\n)\r\n[New Thread 0x7fffbefa5780 (LWP 18919)]\r\n[New Thread 0x7fffbeba4800 (LWP 18920)]\r\n[New Thread 0x7fffbe7a3880 (LWP 18921)]\r\n[New Thread 0x7fffab9b1700 (LWP 18923)]\r\n[New Thread 0x7fffab1af980 (LWP 18924)]\r\n[New Thread 0x7fffaadaea00 (LWP 1
…
