…
alhost/replica:0/task:0/device:GPU:0\", send_device_incarnation=1, tensor_name=\"edge_571_output_24/Sigmoid\", tensor_type=DT_FLOAT, _device=\"/job:localhost/replica:0/task:0/device:CPU:0\"]()]]\n</code></pre>\n<p>The Keras description of the model is</p>\n<pre><code>__________________________________________________________________________________________________\nLayer (type)                    Output Shape         Param #     Connected to                     \n==================================================================================================\nw_inp (InputLayer)              (None, 150)          0                                            \n__________________________________________________________________________________________________\nc_inp (InputLayer)              (None, 600)          0                                            \n__________________________________________________________________________________________________\nw_emb (Embedding)               (None, 150, 300)     45000000    w_inp[0][0]                      \n__________________________________________________________________________________________________\nc_emb (Embedding)               (None, 600, 25)      25000       c_inp[0][0]                      \n__________________________________________________________________________________________________\nw_drop (SpatialDropout1D)       (None, 150, 300)     0           w_emb[0][0]                      \n__________________________________________________________________________________________________\nc_drop (SpatialDropout1D)       (None, 600, 25)      0           c_emb[0][0]                      \n__________________________________________________________________________________________________\nw_bidi (Bidirectional)          (None, 150, 256)     330240      w_drop[0][0]                     \n__________________________________________________________________________________________________\nc_bidi (Bidirectional)          (None, 600, 256)     119040      c_drop[0][0]                     \n__________________________________________________________________________________________________\nw_ave (GlobalAveragePooling1D)  (None, 256)          0           w_bidi[0][0]                     \n__________________________________________________________________________________________________\nw_max (GlobalMaxPooling1D)      (None, 256)          0           w_bidi[0][0]                     \n__________________________________________________________________________________________________\nc_ave (GlobalAveragePooling1D)  (None, 256)          0           c_bidi[0][0]                     \n__________________________________________________________________________________________________\nc_max (GlobalMaxPooling1D)      (None, 256)          0           c_bidi[0][0]                     \n__________________________________________________________________________________________________\nw_conc (Concatenate)            (None, 512)          0           w_ave[0][0]                      \n                                                                 w_max[0][0]                      \n__________________________________________________________________________________________________\nc_conc (Concatenate)            (None, 512)          0           c_ave[0][0]                      \n                                                                 c_max[0][0]                      \n__________________________________________________________________________________________________\nw_c_conc (Concatenate)          (None, 1024)         0           w_conc[0][0]                     \n                                                                 c_conc[0][0]                     \n__________________________________________________________________________________________________\noutput (Dense)                  (None, 6)            6150        w_c_conc[0][0]                   \n==================================================================================================\nTotal params: 45,480,430\nTrainable params: 480,430\nNon-trainable params: 45,000,000\n__________________________________________________________________________________________________\n</code></pre>\n<p><code>nvidia-smi</code> output after the crash is</p
…
