…
Flow version</em>: 1.0.1</li>\n<li><em>Bazel version (if compiling from source)</em>: -</li>\n<li><em>CUDA/cuDNN version</em>: -</li>\n<li><em>GPU Model and Memory</em>: -</li>\n<li><em>Exact command to reproduce</em>: -</li>\n</ul>\n<h3>Describe the problem clearly</h3>\n<p>I have a 'saved model' of a NN that look like this (keras - model.summary()):</p>\n<pre><code>_________________________________________________________________\nLayer (type)                 Output Shape              Param #   \n=================================================================\ninput_1 (InputLayer)         (None, 15, 300)           0         \n_________________________________________________________________\nmasking_1 (Masking)          (None, 15, 300)           0         \n_________________________________________________________________\nlstm_1 (LSTM)                (None, 300)               721200    \n_________________________________________________________________\ndropout_1 (Dropout)          (None, 300)               0         \n_________________________________________________________________\ndense_1 (Dense)              (None, 145)               43645     \n_________________________________________________________________\nactivation_1 (Activation)    (None, 145)               0         \n=================================================================\nTotal params: 764,845.0\nTrainable params: 764,845.0\nNon-trainable params: 0.0\n_________________________________________________________________\n</code></pre>\n<p>When I try to load it using the golang bindings, it results in a crash:</p>\n<pre><code>$ go run example.go \nI tensorflow/cc/saved_model/loader.cc:194] Loa
…
