…
ing1D(pool_size=13,\n                       strides=13))\n\nmodel.add(LSTM(320, return_sequences=True))\n\nmodel.add(Flatten())\nmodel.add(Dense(925,\n                activation='relu'))\nmodel.add(Dense(919,\n                activation='sigmoid'))\n\nmodel.compile(loss='binary_crossentropy',\n              optimizer='rmsprop',\n              metrics=['accuracy'])\n\n_________________________________________________________________\nLayer (type)                 Output Shape              Param #   \n=================================================================\nconv1d_1 (Conv1D)            (None, 975, 320)          33600     \n_________________________________________________________________\nmax_pooling1d_1 (MaxPooling1 (None, 75, 320)           0         \n_________________________________________________________________\nlstm_1 (LSTM)                (None, 75, 320)           820480    \n_________________________________________________________________\nflatten_1 (Flatten)          (None, 24000)             0         \n_________________________________________________________________\ndense_1 (Dense)              (None, 925)               22200925  \n_________________________________________________________________\ndense_2 (Dense)              (None, 919)               850994    \n=================================================================\nTotal params: 23,905,999\nTrainable params: 23,905,999\nNon-trainable params: 0\n_________________________________________________________________\nbut produces this error in keras v2.0.8-tf:\n---------------------------------------------------------------------------\nValueError                                Traceback (most
…
