…
                                                                                                                                                                             \n    (encoder): Encoder(                                                                                                                                                                                     \n      (initial_block): DownsamplerBlock(                                                                                                                                                                    \n        (conv): Conv2d(3, 13, kernel_size=(3, 3), stride=(2, 2), padding=(1, 1))                                                                                                                            \n        (pool): MaxPool2d(kernel_size=2, stride=2, padding=0, dilation=1, ceil_mode=False)                                                                                                                  \n        (bn): BatchNorm2d(16, eps=0.001, momentum=0.1, affine=True, track_running_stats=True)                                                                                                               \n      )                                                                                                                                                                                                     \n      (layers): ModuleList(                                                                                                                                                                                 \n        (0): DownsamplerBlock(                                                                                                                                                                              \n          (conv): Conv2d(16, 48, kernel_size=(3, 3), stride=(2, 2), padding=(1, 1))                                                                                                                         \n          (pool): MaxPool2d(kernel_size=2, stride=2, padding=0, dilation=1, ceil_mode=False)                                                                                                                \n          (bn): BatchNorm2d(64, eps=0.001, momentum=0.1, affine=True, track_running_stats=True)                                                                                                             \n        )                                                                                                                                                                                                   \n        (1): non_bottleneck_1d(                                                                                                                                                                             \n          (conv3x1_1): Conv2d(64, 64, kernel_size=(3, 1), stride=(1, 1), padding=(1, 0))                                                                                                                    \n          (conv1x3_1): Conv2d(64, 64, kernel_size=(1, 3), stride=(1, 1), padding=(0, 1))                                                                                                                    \n          (bn1): BatchNorm2d(64, eps=0.001, momentum=0.1, affine=True, track_running_stats=True)                                                                                                            \n          (conv3x1_2): Conv2d(64, 64, kernel_size=(3, 1), stride=(1, 1), padding=(1, 0))                                                                                                                    \n          (conv1x3_2): Conv2d(64, 64, kernel_size=(1, 3), stride=(1, 1), padding=(0, 1))                                                                                                                    \n          (bn2): BatchNorm2d(64, eps=0.001, momentum=0.1, affine=True, track_running_stats=True)                                                                                                            \n          (dropout): Dropout2d(p=0.03)                                                                                                                                                                      \n        )                                                                                                                                                                                                   \n        (2): non_bottleneck_1d(                                                                                                                                                                             \n          (conv3x1_1): Conv2d(64, 64, kernel_size=(3, 1), stride=(1, 1), padding=(1, 0))                                                                                                                    \n          (conv1x3_1): Conv2d(64, 64, kernel_size=(1, 3), stride=(1, 1), padding=(0, 1))                                                                                                                    \n          (bn1): BatchNorm2d(64, eps=0.001, momentum=0.1, affine=True, track_running_stats=True)                                                                                                            \n          (conv3x1_2): Conv2d(64, 64, kernel_size=(3, 1), stride=(1, 1), padding=(1, 0))                                                                                                                    \n          (conv1x3_2): Conv2d(64, 64, kernel_size=(1, 3), stride=(1, 1), padding=(0, 1))                                                                                                                    \n          (bn2): BatchNorm2d(64, eps=0.001, momentum=0.1, affine=True, track_running_stats=True)                                                                                                            \n          (dropout): Dropout2d(p=0.03)                                                                                                                                                                      \n        )                                                                                                                                                                                                   \n        (3): non_bottleneck_1d(                                                                                                                                                                             \n          (conv3x1_1): Conv2d(64, 64, kernel_size=(3, 1), stride=(1, 1), padding=(1, 0))                                                                                                                    \n          (conv1x3_1): Conv2d(64, 64, kernel_size=(1, 3), stride=(1, 1), padding=(0, 1))                                                                                                                    \n          (bn1): BatchNorm2d(64, eps=0.001, momentum=0.1, affine=True, track_running_stats=True)                                                                                                            \n          (conv3x1_2): Conv2d(64, 64, kernel_size=(3, 1), stride=(1, 1), padding=(1, 0))                                                                                                                    \n          (conv1x3_2): Conv2d(64, 64, kernel_size=(1, 3), stride=(1, 1), padding=(0, 1))                                                                                                                    \n          (bn2): BatchNorm2d(64, eps=0.001, momentum=0.1, affine=True, track_running_stats=True)                                                                                                            \n          (dropout): Dropout2d(p=0.03)                                                                                                                                                                      \n        )                                                                                                                                                                                                   \n        (5): non_bottleneck_1d(\n          (conv3x1_1): Conv2d(16, 16, kernel_size=(3, 1), stride=(1, 1), padding=(1, 0))\n        )                                                                                                                                                                                           [55/955]\n      )                                                                                                                                                                                                     \n      (output_conv): Conv2d(128, 2, kernel_size=(1, 1), stride=(1, 1))                                                                                                                                      \n    )                                                                                                                                                                                                       \n    (decoder): D
…
                                                                                                                                                                           \n      (layers): ModuleList(                                                                                                                                                                                 \n        (0): UpsamplerBlock(                                                                                                                                                                                \n          (conv): ConvTranspose2d(128, 64, kernel_size=(3, 3), stride=(2, 2), padding=(1, 1), output_padding=(1, 1))                                                                                        \n          (bn): BatchNorm2d(64, eps=0.001, momentum=0.1, affine=True, track_running_stats=True)                                                                                                             \n        )                                                                                                                                                                                                   \n        (1): non_bottleneck_1d(                                                                                                                                                                             \n          (conv3x1_1): Conv2d(64, 64, kernel_size=(3, 1), stride=(1, 1), padding=(1, 0))                                                                                                                    \n          (conv1x3_1): Conv2d(64, 64, kernel_size=(1, 3), stride=(1, 1), padding=(0, 1))                                                                                                                    \n          (bn1): BatchNorm2d(64, eps=0.001, momentum=0.1, affine=True, track_running_stats=True)                                                                                                            \n          (conv3x1_2): Conv2d(64, 64, kernel_size=(3, 1), stride=(1, 1), padding=(1, 0))                                                                                                                    \n          (conv1x3_2): Conv2d(64, 64, kernel_size=(1, 3), stride=(1, 1), padding=(0, 1))                                                                                                                    \n          (bn2): BatchNorm2d(64, eps=0.001, momentum=0.1, affine=True, track_running_stats=True)                                                                                                            \n          (dropout): Dropout2d(p=0)                                                                                                                                                                         \n        )                                                                                                                                                                                                   \n        (2): non_bottleneck_1d(                                                                                                                                                                             \n          (conv3x1_1): Conv2d(64, 64, kernel_size=(3, 1), stride=(1, 1), padding=(1, 0))                                                                                                                    \n          (conv1x3_1): Conv2d(64, 64, kernel_size=(1, 3), stride=(1, 1), padding=(0, 1))\n          (bn1): BatchNorm2d(64, eps=0.001, momentum=0.1, affine=True, track_running_stats=True)\n          (conv3x1_2): Conv2d(64, 64, kernel_size=(3, 1), stride=(1, 1), padding=(1, 0))\n          (conv1x3_2): Conv2d(64, 64, kernel_size=(1, 3), stride=(1, 1), padding=(0, 1))\n          (bn2): BatchNorm2d(64, eps=0.001, momentum=0.1, affine=True, track_running_stats=True)\n          (dropout): Dropout2d(p=0)\n        )\n        (3): UpsamplerBlock(\n          (conv): ConvTranspose2d(64, 16, kernel_size=(3, 3), stride=(2, 2), padding=(1, 1), output_padding=(1, 1))\n          (bn): BatchNorm2d(16, eps=0.001, momentum=0.1, affine=True, track_running_stats=True)\n        )\n        (4): non_bottleneck_1d(\n          (conv3x1_1): Conv2d(16, 16, kernel_size=(3, 1), stride=(1, 1), padding=(1, 0))\n          (conv1x3_1): Conv2d(16, 16, kernel_size=(1, 3), stride=(1, 1), padding=(0, 1))\n          (bn1): BatchNorm2d(16, eps=0.001, momentum=0.1, affine=True, track_running_stats=True)\n          (conv3x1_2): Conv2d(16, 16, kernel_size=(3, 1), stride=(1, 1), padding=(1, 0))\n          (conv1x3_2): Conv2d(16, 16, kernel_size=(1, 3), stride=(1, 1), padding=(0, 1))\n          (bn2): BatchNorm2d(16, eps=0.001, momentum=0.1, affine=True, track_running_stats=True)\n          (dropout): Dropout2d(p=0)\n        )\n        (5): non_bottleneck_1d(\n          (conv3x1_1): Conv2d(16, 16, kernel_size=(3, 1), stride=(1, 1), padding=(1, 0))\n          (conv1x3_1): Conv2d(16, 16, kernel_size=(1, 3), stride=(1, 1), padding=(0, 1))\n          (bn1): BatchNorm2d(16, eps=0.001, momentum=0.1, affine=True, track_running_stats=True)\n          (conv3x1_2): Conv2d(16, 16, kernel_size=(3, 1), stride=(1, 1), padding=(1, 0))\n          (conv1x3_2): Conv2d(16, 16, kernel_size=(1, 3), stride=(1, 1), padding=(0, 1))\n          (bn2): BatchNorm2d(16, eps=0.001, momentum=0.1, affine=True, track_running_stats=True)\n          (dropout): Dropout2d(p=0)\n        )\n      )\n      (output_conv): ConvTranspose2d(16, 2, kernel_size=(2, 2), stride=(2, 2))\n    )\n  )\n)\n            \n</code></pre>\n<p>Nothing that looks glaringly \"unsupported\"...</p>\n<p>Here is how I'm trying to load and export it.</p>\n<pre><code>    modelpath = ARGS_LOAD_DIR + ARGS_LOAD_MODEL\n    weightspath = ARGS_LOAD_DIR + ARGS_LOAD_WEIGHTS\n    print (\"---------- DATA PATHS: ----------\")\n    print (\"Model File: \" + modelpath
…
                                                                                                                                                                           \n      (layers): ModuleList(                                                                                                                                                                                 \n        (0): UpsamplerBlock(                                                                                                                                                                                \n          (conv): ConvTranspose2d(128, 64, kernel_size=(3, 3), stride=(2, 2), padding=(1, 1), output_padding=(1, 1))                                                                                        \n          (bn): BatchNorm2d(64, eps=0.001, momentum=0.1, affine=True, track_running_stats=True)                                                                                                             \n        )                                                                                                                                                                                                   \n        (1): non_bottleneck_1d(                                                                                                                                                                             \n          (conv3x1_1): Conv2d(64, 64, kernel_size=(3, 1), stride=(1, 1), padding=(1, 0))                                                                                                                    \n          (conv1x3_1): Conv2d(64, 64, kernel_size=(1, 3), stride=(1, 1), padding=(0, 1))                                                                                                                    \n          (bn1): BatchNorm2d(64, eps=0.001, momentum=0.1, affine=True, track_running_stats=True)                                                                                                            \n          (conv3x1_2): Conv2d(64, 64, kernel_size=(3, 1), stride=(1, 1), padding=(1, 0))                                                                                                                    \n          (conv1x3_2): Conv2d(64, 64, kernel_size=(1, 3), stride=(1, 1), padding=(0, 1))                                                                                                                    \n          (bn2): BatchNorm2d(64, eps=0.001, momentum=0.1, affine=True, track_running_stats=True)                                                                                                            \n          (dropout): Dropout2d(p=0)                                                                                                                                                                         \n        )                                                                                                                                                                                                   \n        (2): non_bottleneck_1d(                                                                                                                                                                             \n          (conv3x1_1): Conv2d(64, 64, kernel_size=(3, 1), stride=(1, 1), padding=(1, 0))                                                                                                                    \n          (conv1x3_1): Conv2d(64, 64, kernel_size=(1, 3), stride=(1, 1), padding=(0, 1))\n          (bn1): BatchNorm2d(64, eps=0.001, momentum=0.1, affine=True, track_running_stats=True)\n          (conv3x1_2): Conv2d(64, 64, kernel_size=(3, 1), stride=(1, 1), padding=(1, 0))\n          (conv1x3_2): Conv2d(64, 64, kernel_size=(1, 3), stride=(1, 1), padding=(0, 1))\n          (bn2): BatchNorm2d(64, eps=0.001, momentum=0.1, affine=True, track_running_stats=True)\n          (dropout): Dropout2d(p=0)\n        )\n        (3): UpsamplerBlock(\n          (conv): ConvTranspose2d(64, 16, kernel_size=(3, 3), stride=(2, 2), padding=(1, 1), output_padding=(1, 1))\n          (bn): BatchNorm2d(16, eps=0.001, momentum=0.1, affine=True, track_running_stats=True)\n        )\n        (4): non_bottleneck_1d(\n          (conv3x1_1): Conv2d(16, 16, kernel_size=(3, 1), stride=(1, 1), padding=(1, 0))\n          (conv1x3_1): Conv2d(16, 16, kernel_size=(1, 3), stride=(1, 1), padding=(0, 1))\n          (bn1): BatchNorm2d(16, eps=0.001, momentum=0.1, affine=True, track_running_stats=True)\n          (conv3x1_2): Conv2d(16, 16, kernel_size=(3, 1), stride=(1, 1), padding=(1, 0))\n          (conv1x3_2): Conv2d(16, 16, kernel_size=(1, 3), stride=(1, 1), padding=(0, 1))\n          (bn2): BatchNorm2d(16, eps=0.001, momentum=0.1, affine=True, track_running_stats=True)\n          (dropout): Dropout2d(p=0)\n        )\n        (5): non_bottleneck_1d(\n          (conv3x1_1): Conv2d(16, 16, kernel_size=(3, 1), stride=(1, 1), padding=(1, 0))\n          (conv1x3_1): Conv2d(16, 16, kernel_size=(1, 3), stride=(1, 1), padding=(0, 1))\n          (bn1): BatchNorm2d(16, eps=0.001, momentum=0.1, affine=True, track_running_stats=True)\n          (conv3x1_2): Conv2d(16, 16, kernel_size=(3, 1), stride=(1, 1), padding=(1, 0))\n          (conv1x3_2): Conv2d(16, 16, kernel_size=(1, 3), stride=(1, 1), padding=(0, 1))\n          (bn2): BatchNorm2d(16, eps=0.001, momentum=0.1, affine=True, track_running_stats=True)\n          (dropout): Dropout2d(p=0)\n        )\n      )\n      (output_conv): ConvTranspose2d(16, 2, kernel_size=(2, 2), stride=(2, 2))\n    )\n  )\n)\n            \n\nNothing that looks glaringly \"unsupported\"...\nHere is how I'm trying to load and export it.\n    modelpath = ARGS_LOAD_DIR + ARGS_LOAD_MODEL\n    weightspath = ARGS_LOAD_DIR + ARGS_LOAD_WEIGHTS\n    print (\"---------- DATA PATHS: ----------\")\n    print (\"Model File: \" + modelpath)\n    print (\"Weight File: \" + weig
…
                                                                                                                                                                       \r\n    (encoder): Encoder(                                                                                                                                                                                     \r\n      (initial_block): DownsamplerBlock(                                                                                                                                                                    \r\n        (conv): Conv2d(3, 13, kernel_size=(3, 3), stride=(2, 2), padding=(1, 1))                                                                                                                            \r\n        (pool): MaxPool2d(kernel_size=2, stride=2, padding=0, dilation=1, ceil_mode=False)                                                                                                                  \r\n        (bn): BatchNorm2d(16, eps=0.001, momentum=0.1, affine=True, track_running_stats=True)                                                                                                               \r\n      )                                                                                                                                                                                                     \r\n      (layers): ModuleList(                                                                                                                                                                                 \r\n        (0): DownsamplerBlock(                                                                                                                                                                              \r\n          (conv): Conv2d(16, 48, kernel_size=(3, 3), stride=(2, 2), padding=(1, 1))                                                                                                                         \r\n          (pool): MaxPool2d(kernel_size=2, stride=2, padding=0, dilation=1, ceil_mode=False)                                                                                                                \r\n          (bn): BatchNorm2d(64, eps=0.001, momentum=0.1, affine=True, track_running_stats=True)                                                                                                             \r\n        )                                                                                                                                                                                                   \r\n        (1): non_bottleneck_1d(                                                                                                                                                                             \r\n          (conv3x1_1): Conv2d(64, 64, kernel_size=(3, 1), stride=(1, 1), padding=(1, 0))                                                                                                                    \r\n          (conv1x3_1): Conv2d(64, 64, kernel_size=(1, 3), stride=(1, 1), padding=(0, 1))                                                                                                                    \r\n          (bn1): BatchNorm2d(64, eps=0.001, momentum=0.1, affine=True, track_running_stats=True)                                                                                                            \r\n          (conv3x1_2): Conv2d(64, 64, kernel_size=(3, 1), stride=(1, 1), padding=(1, 0))                                                                                                                    \r\n          (conv1x3_2): Conv2d(64, 64, kernel_size=(1, 3), stride=(1, 1), padding=(0, 1))                                                                                                                    \r\n          (bn2): BatchNorm2d(64, eps=0.001, momentum=0.1, affine=True, track_running_stats=True)                                                                                                            \r\n          (dropout): Dropout2d(p=0.03)                                                                                                                                                                      \r\n        )                                                                                                                                                                                                   \r\n        (2): non_bottleneck_1d(                                                                                                                                                                             \r\n          (conv3x1_1): Conv2d(64, 64, kernel_size=(3, 1), stride=(1, 1), padding=(1, 0))                                                                                                                    \r\n          (conv1x3_1): Conv2d(64, 64, kernel_size=(1, 3), stride=(1, 1), padding=(0, 1))                                                                                                                    \r\n          (bn1): BatchNorm2d(64, eps=0.001, momentum=0.1, affine=True, track_running_stats=True)                                                                                                            \r\n          (conv3x1_2): Conv2d(64, 64, kernel_size=(3, 1), stride=(1, 1), padding=(1, 0))                                                                                                                    \r\n          (conv1x3_2): Conv2d(64, 64, kernel_size=(1, 3), stride=(1, 1), padding=(0, 1))                                                                                                                    \r\n          (bn2): BatchNorm2d(64, eps=0.001, momentum=0.1, affine=True, track_running_stats=True)                                                                                                            \r\n          (dropout): Dropout2d(p=0.03)                                                                                                                                                                      \r\n        )                                                                                                                                                                                                   \r\n        (3): non_bottleneck_1d(                                                                                                                                                                             \r\n          (conv3x1_1): Conv2d(64, 64, kernel_size=(3, 1), stride=(1, 1), padding=(1, 0))                                                                                                                    \r\n          (conv1x3_1): Conv2d(64, 64, kernel_size=(1, 3), stride=(1, 1), padding=(0, 1))                                                                                                                    \r\n          (bn1): BatchNorm2d(64, eps=0.001, momentum=0.1, affine=True, track_running_stats=True)                                                                                                            \r\n          (conv3x1_2): Conv2d(64, 64, kernel_size=(3, 1), stride=(1, 1), padding=(1, 0))                                                                                                                    \r\n          (conv1x3_2): Conv2d(64, 64, kernel_size=(1, 3), stride=(1, 1), padding=(0, 1))                                                                                                                    \r\n          (bn2): BatchNorm2d(64, eps=0.001, momentum=0.1, affine=True, track_running_stats=True)                                                                                                            \r\n          (dropout): Dropout2d(p=0.03)                                                                                                                                                                      \r\n        )                                                                                                                                                                                                   \r\n        (5): non_bottleneck_1d(\r\n          (conv3x1_1): Conv2d(16, 16, kernel_size=(3, 1), stride=(1, 1), padding=(1, 0))\r\n        )                                                                                                                                                                                           [55/955]\r\n      )                                                                                                                                                                                                     \r\n      (output_conv): Conv2d(128, 2, kernel_size=(1, 1), stride=(1, 1))                                                                                                                                      \r\n    )                                                                                                                                                                                                       \r\n    (decoder
…
                                                                                                                                                                     \r\n      (layers): ModuleList(                                                                                                                                                                                 \r\n        (0): UpsamplerBlock(                                                                                                                                                                                \r\n          (conv): ConvTranspose2d(128, 64, kernel_size=(3, 3), stride=(2, 2), padding=(1, 1), output_padding=(1, 1))                                                                                        \r\n          (bn): BatchNorm2d(64, eps=0.001, momentum=0.1, affine=True, track_running_stats=True)                                                                                                             \r\n        )                                                                                                                                                                                                   \r\n        (1): non_bottleneck_1d(                                                                                                                                                                             \r\n          (conv3x1_1): Conv2d(64, 64, kernel_size=(3, 1), stride=(1, 1), padding=(1, 0))                                                                                                                    \r\n          (conv1x3_1): Conv2d(64, 64, kernel_size=(1, 3), stride=(1, 1), padding=(0, 1))                                                                                                                    \r\n          (bn1): BatchNorm2d(64, eps=0.001, momentum=0.1, affine=True, track_running_stats=True)                                                                                                            \r\n          (conv3x1_2): Conv2d(64, 64, kernel_size=(3, 1), stride=(1, 1), padding=(1, 0))                                                                                                                    \r\n          (conv1x3_2): Conv2d(64, 64, kernel_size=(1, 3), stride=(1, 1), padding=(0, 1))                                                                                                                    \r\n          (bn2): BatchNorm2d(64, eps=0.001, momentum=0.1, affine=True, track_running_stats=True)                                                                                                            \r\n          (dropout): Dropout2d(p=0)                                                                                                                                                                         \r\n        )                                                                                                                                                                                                   \r\n        (2): non_bottleneck_1d(                                                                                                                                                                             \r\n          (conv3x1_1): Conv2d(64, 64, kernel_size=(3, 1), stride=(1, 1), padding=(1, 0))                                                                                                                    \r\n          (conv1x3_1): Conv2d(64, 64, kernel_size=(1, 3), stride=(1, 1), padding=(0, 1))\r\n          (bn1): BatchNorm2d(64, eps=0.001, momentum=0.1, affine=True, track_running_stats=True)\r\n          (conv3x1_2): Conv2d(64, 64, kernel_size=(3, 1), stride=(1, 1), padding=(1, 0))\r\n          (conv1x3_2): Conv2d(64, 64, kernel_size=(1, 3), stride=(1, 1), padding=(0, 1))\r\n          (bn2): BatchNorm2d(64, eps=0.001, momentum=0.1, affine=True, track_running_stats=True)\r\n          (dropout): Dropout2d(p=0)\r\n        )\r\n        (3): UpsamplerBlock(\r\n          (conv): ConvTranspose2d(64, 16, kernel_size=(3, 3), stride=(2, 2), padding=(1, 1), output_padding=(1, 1))\r\n          (bn): BatchNorm2d(16, eps=0.001, momentum=0.1, affine=True, track_running_stats=True)\r\n        )\r\n        (4): non_bottleneck_1d(\r\n          (conv3x1_1): Conv2d(16, 16, kernel_size=(3, 1), stride=(1, 1), padding=(1, 0))\r\n          (conv1x3_1): Conv2d(16, 16, kernel_size=(1, 3), stride=(1, 1), padding=(0, 1))\r\n          (bn1): BatchNorm2d(16, eps=0.001, momentum=0.1, affine=True, track_running_stats=True)\r\n          (conv3x1_2): Conv2d(16, 16, kernel_size=(3, 1), stride=(1, 1), padding=(1, 0))\r\n          (conv1x3_2): Conv2d(16, 16, kernel_size=(1, 3), stride=(1, 1), padding=(0, 1))\r\n          (bn2): BatchNorm2d(16, eps=0.001, momentum=0.1, affine=True, track_running_stats=True)\r\n          (dropout): Dropout2d(p=0)\r\n        )\r\n        (5): non_bottleneck_1d(\r\n          (conv3x1_1): Conv2d(16, 16, kernel_size=(3, 1), stride=(1, 1), padding=(1, 0))\r\n          (conv1x3_1): Conv2d(16, 16, kernel_size=(1, 3), stride=(1, 1), padding=(0, 1))\r\n          (bn1): BatchNorm2d(16, eps=0.001, momentum=0.1, affine=True, track_running_stats=True)\r\n          (conv3x1_2): Conv2d(16, 16, kernel_size=(3, 1), stride=(1, 1), padding=(1, 0))\r\n          (conv1x3_2): Conv2d(16, 16, kernel_size=(1, 3), stride=(1, 1), padding=(0, 1))\r\n          (bn2): BatchNorm2d(16, eps=0.001, momentum=0.1, affine=True, track_running_stats=True)\r\n          (dropout): Dropout2d(p=0)\r\n        )\r\n      )\r\n      (output_conv): ConvTranspose2d(16, 2, kernel_size=(2, 2), stride=(2, 2))\r\n    )\r\n  )\r\n)\r\n            \r\n```\r\n\r\nNothing that looks glaringly \"unsupported\"...\r\n\r\nHere is how I'm trying to load and export it.\r\n\r\n\r\n```\r\n    modelpath = ARGS_LOAD_DIR + ARGS_LOAD_MODEL\r\n    weightspath = ARGS_LOAD_DIR + ARGS_LOAD_WEIGHTS\r\n    print (\"---------- DATA PATHS: ----------\")\r\n    print (\"Model File: \" +
…
