…
> <span class=\"pl-c1\">2000</span>))\n            running_loss <span class=\"pl-k\">=</span> <span class=\"pl-c1\">0.0</span>\n<span class=\"pl-c1\">print</span>(<span class=\"pl-s\"><span class=\"pl-pds\">'</span>Finished Training<span class=\"pl-pds\">'</span></span>)</pre></div>\n<p>However,it raised an error. Could anyone explain what caused this problem? And if possible, how to fix it?Thanks a lot!</p>\n<pre><code>D:\\Anaconda3\\envs\\python36\\python.exe C:/pt_test/setup_cifar_torch\nFiles already downloaded and verified\nFiles already downloaded and verified\nCIFARModelTorch(\n  (conv1): Conv2d(3, 64, kernel_size=(3, 3), stride=(1, 1))\n  (conv2): Conv2d(64, 64, kernel_size=(3, 3), stride=(1, 1))\n  (pool): MaxPool2d(kernel_size=2, stride=2, padding=0, dilation=1, ceil_mode=False)\n  (conv3): Conv2d(64, 128, kernel_size=(3, 3), stride=(1, 1))\n  (conv4): Conv2d(128, 128, kernel_size=(3, 3), stride=(1, 1))\n  (fc1): Linear(in_features=12800, out_features=256, bias=True)\n  (fc2): Linear(in_features=256, out_features=256, bias=True)\n  (fc3): Linear(in_features=256, out_features=10, bias=True)\n)\ntest01\nTraceback (most recent call last):\n  File \"C:/pt_test/setup_cifar_torch\", line 61, in &lt;module&gt;\n    loss = criterion(outputs, labels)\n  File \"D:\\Anaconda3\\envs\\python36\\lib\\site-packages\\torch\\nn\\modules\\module.py\", line 477, in __call__\n    result = self.forward(*input, **kwargs)\n  File \"D:\\Anaconda3\\envs\\python36
…
     loss.backward()\r\n        optimizer.step()\r\n        running_loss += loss.data[0]\r\n        if i % 2000 == 1999:\r\n            print('[%d, %5d] loss: %.3f' % (epoch + 1, i + 1, running_loss / 2000))\r\n            running_loss = 0.0\r\nprint('Finished Training')\r\n```\r\n\r\nHowever,it raised an error. Could anyone explain what caused this problem? And if possible, how to fix it?Thanks a lot!\r\n```\r\nD:\\Anaconda3\\envs\\python36\\python.exe C:/pt_test/setup_cifar_torch\r\nFiles already downloaded and verified\r\nFiles already downloaded and verified\r\nCIFARModelTorch(\r\n  (conv1): Conv2d(3, 64, kernel_size=(3, 3), stride=(1, 1))\r\n  (conv2): Conv2d(64, 64, kernel_size=(3, 3), stride=(1, 1))\r\n  (pool): MaxPool2d(kernel_size=2, stride=2, padding=0, dilation=1, ceil_mode=False)\r\n  (conv3): Conv2d(64, 128, kernel_size=(3, 3), stride=(1, 1))\r\n  (conv4): Conv2d(128, 128, kernel_size=(3, 3), stride=(1, 1))\r\n  (fc1): Linear(in_features=12800, out_features=256, bias=True)\r\n  (fc2): Linear(in_features=256, out_features=256, bias=True)\r\n  (fc3): Linear(in_features=256, out_features=10, bias=True)\r\n)\r\ntest01\r\nTraceback (most recent call last):\r\n  File \"C:/pt_test/setup_cifar_torch\", line 61, in <module>\r\n    loss = criterion(outputs, labels)\r\n  File \"D:\\Anaconda3\\envs\\python36\\lib\\site-packages\\torch\\nn\\modules\\module.py\", line 477, in __call__\r\n    result = self.forward(*input, **kwargs)\r\n  File \"D:\\Anaconda3\\envs
…
