…
a href=\"https://github.com/tensorflow/tensorflow/blob/f488419cd6d9256b25ba25cbe736097dfeee79f9/tensorflow/core/kernels/neon/neon_depthwise_conv_op.cc\">slightly optimized implementation</a>, so their depthwise conv is about 3x-8x faster than the normal conv (comparing 3x3 conv with 3x3 depthwise conv ONLY, without pointwise conv), but still slow.</p>\n<p>Benchmark comparing time (in seconds) of different group size (groups=1,2,4,256). We can see that for small number of groups we get reasonable speedup. For large number of groups it gets much slower instead.</p>\n<pre><code>Sequential (\n  (0): Conv2d(256, 256, kernel_size=(3, 3), stride=(1, 1), padding=(1, 1))\n  (1): Conv2d(256, 256, kernel_size=(3, 3), stride=(1, 1), padding=(1, 1))\n  (2): Conv2d(256, 256, kernel_size=(3, 3), stride=(1, 1), padding=(1, 1))\n  (3): Conv2d(256, 256, kernel_size=(3, 3), stride=(1, 1), padding=(1, 1))\n  (4): Conv2d(256, 256, kernel_size=(3, 3), stride=(1, 1), padding=(1, 1))\n  (5): Conv2d(256, 256, kernel_size=(3, 3), stride=(1, 1), padding=(1, 1))\n  (6): Conv2d(256, 256, kernel_size=(3, 3), stride=(1, 1), padding=(1, 1))\n  (7): Conv2d(256, 256, kernel_size=(3, 3), stride=(1, 1), padding=(1, 1))\n  (8): Conv2d(256, 256, kernel_size=(3, 3), stride=(1, 1), padding=(1, 1))\n  (9): Conv2d(256, 256, kernel_size=(3, 3), stride=(1, 1), padding=(1, 1))\n)\ntesting model of weight size: torch.Size([256, 256, 3, 3])\n3.65793013573\nSequential (\n  (0): Conv2d(256, 256, kernel_size=(3, 3), stride=(1, 1), padding=(1, 1), groups=2)\n  (1): Conv2d(256, 256, kernel_size=(3, 3), stride=(1, 1), padding=(1, 1), groups=2)\n  (2): Conv2d(256, 256, kernel_size=(3, 3), stride=(1, 1), padding=(1, 1), groups=2)\n  (3): Conv2d(256, 256, kernel_size=(3, 3), stride=(1, 1), padding=(1, 1), groups=2)\n  (4): Conv2d(256, 256, kernel_size=(3, 3), stride=(1, 1), padding=(1, 1), groups=2)\n  (5): Conv2d(256, 256, kernel_size=(3, 3), stride=(1, 1), padding=(1, 1), groups=2)\n  (6): Conv2d(256, 256, kernel_size=(3, 3), stride=(1, 1), padding=(1, 1), groups=2)\n  (7): Conv2d(256, 256, kernel_size=(3, 3), stride=(1, 1), padding=(1, 1), groups=2)\n  (8): Conv2d(256, 256, kernel_size=(3, 3), stride=(1, 1), padding=(1, 1), groups=2)\n  (9): Conv2d(256, 256, kernel_size=(3, 3), stride=(1, 1), padding=(1, 1), groups=2)\n)\ntesting model of weight size: torch.Size([256, 128, 3, 3])\n1.99519991875\nSequential (\n  (0): Conv2d(256, 256, kernel_size=(3, 3), stride=(1, 1), padding=(1, 1), groups=4)\n  (1): Conv2d(256, 256, kernel_size=(3, 3), stride=(1, 1), padding=(1, 1), groups=4)\n  (2): Conv2d(256, 256, kernel_size=(3, 3), stride=(1, 1), padding=(1, 1), groups=4)\n  (3): Conv2d(256, 256, kernel_size=(3, 3), stride=(1, 1), padding=(1, 1), groups=4)\n  (4): Conv2d(256, 256, kernel_size=(3, 3), stride=(1, 1), padding=(1, 1), groups=4)\n  (5): Conv2d(256, 256, kernel_size=(3, 3), stride=(1, 1), padding=(1, 1), groups=4)\n  (6): Conv2d(256, 256, kernel_size=(3, 3), stride=(1, 1), padding=(1, 1), groups=4)\n  (7): Conv2d(256, 256, kernel_size=(3, 3), stride=(1, 1), padding=(1, 1), groups=4)\n  (8): Conv2d(256, 256, kernel_size=(3, 3), stride=(1, 1), padding=(1, 1), groups=4)\n  (9): Conv2d(256, 256, kernel_size=(3, 3), stride=(1, 1), padding=(1, 1), groups=4)\n)\ntesting model of weight size: torch.Size([256, 64, 3, 3])\n1.34896993637\nSequential (\n  (0): Conv2d(256, 256, kernel_size=(3, 3), stride=(1, 1), padding=(1, 1), groups=256)\n  (1): Conv2d(256, 256, kernel_size=(3, 3), stride=(1, 1), padding=(1, 1), groups=256)\n  (2): Conv2d(256, 256, kernel_size=(3, 3), stride=(1, 1), padding=(1, 1), groups=256)\n  (3): Conv2d(256, 256, kernel_size=(3, 3), stride=(1, 1), padding=(1, 1), groups=256)\n  (4): Conv2d(256, 256, kernel_size=(3, 3), stride=(1, 1), padding=(1, 1), groups=256)\n  (5): Conv2d(256, 256, kernel_size=(3, 3), stride=(1, 1), padding=(1, 1), groups=256)\n  (6): Conv2d(256, 256, kernel_size=(3, 3), stride=(1, 1), padding=(1, 1), groups=256)\n  (7): Conv2d(256, 256, kernel_size=(3, 3), stride=(1, 1), padding=(1, 1), groups=256)\n  (8): Conv2d(256, 256, kernel_size=(3, 3), stride=(1, 1), padding=(1, 1), groups=256)\n  (9): Conv2d(256, 256, kernel_size=(3, 3), stride=(1, 1), padding=(1, 1), groups=256)\n)\ntesting model of weight size: torch.Size([256, 1, 3, 3])\n5.64783811569\n\n</code></pre>", "body_text": "I don't see an implementation for depthwise separable convolution. Currently it is possible with Conv2d by setting groups=out_channels. However this is painstakingly slow. See benchmark at bottom. We need an efficient 
…
ms to have a [slightly optimized implementation](https://github.com/tensorflow/tensorflow/blob/f488419cd6d9256b25ba25cbe736097dfeee79f9/tensorflow/core/kernels/neon/neon_depthwise_conv_op.cc), so their depthwise conv is about 3x-8x faster than the normal conv (comparing 3x3 conv with 3x3 depthwise conv ONLY, without pointwise conv), but still slow.\r\n\r\n\r\nBenchmark comparing time (in seconds) of different group size (groups=1,2,4,256). We can see that for small number of groups we get reasonable speedup. For large number of groups it gets much slower instead.\r\n```\r\nSequential (\r\n  (0): Conv2d(256, 256, kernel_size=(3, 3), stride=(1, 1), padding=(1, 1))\r\n  (1): Conv2d(256, 256, kernel_size=(3, 3), stride=(1, 1), padding=(1, 1))\r\n  (2): Conv2d(256, 256, kernel_size=(3, 3), stride=(1, 1), padding=(1, 1))\r\n  (3): Conv2d(256, 256, kernel_size=(3, 3), stride=(1, 1), padding=(1, 1))\r\n  (4): Conv2d(256, 256, kernel_size=(3, 3), stride=(1, 1), padding=(1, 1))\r\n  (5): Conv2d(256, 256, kernel_size=(3, 3), stride=(1, 1), padding=(1, 1))\r\n  (6): Conv2d(256, 256, kernel_size=(3, 3), stride=(1, 1), padding=(1, 1))\r\n  (7): Conv2d(256, 256, kernel_size=(3, 3), stride=(1, 1), padding=(1, 1))\r\n  (8): Conv2d(256, 256, kernel_size=(3, 3), stride=(1, 1), padding=(1, 1))\r\n  (9): Conv2d(256, 256, kernel_size=(3, 3), stride=(1, 1), padding=(1, 1))\r\n)\r\ntesting model of weight size: torch.Size([256, 256, 3, 3])\r\n3.65793013573\r\nSequential (\r\n  (0): Conv2d(256, 256, kernel_size=(3, 3), stride=(1, 1), padding=(1, 1), groups=2)\r\n  (1): Conv2d(256, 256, kernel_size=(3, 3), stride=(1, 1), padding=(1, 1), groups=2)\r\n  (2): Conv2d(256, 256, kernel_size=(3, 3), stride=(1, 1), padding=(1, 1), groups=2)\r\n  (3): Conv2d(256, 256, kernel_size=(3, 3), stride=(1, 1), padding=(1, 1), groups=2)\r\n  (4): Conv2d(256, 256, kernel_size=(3, 3), stride=(1, 1), padding=(1, 1), groups=2)\r\n  (5): Conv2d(256, 256, kernel_size=(3, 3), stride=(1, 1), padding=(1, 1), groups=2)\r\n  (6): Conv2d(256, 256, kernel_size=(3, 3), stride=(1, 1), padding=(1, 1), groups=2)\r\n  (7): Conv2d(256, 256, kernel_size=(3, 3), stride=(1, 1), padding=(1, 1), groups=2)\r\n  (8): Conv2d(256, 256, kernel_size=(3, 3), stride=(1, 1), padding=(1, 1), groups=2)\r\n  (9): Conv2d(256, 256, kernel_size=(3, 3), stride=(1, 1), padding=(1, 1), groups=2)\r\n)\r\ntesting model of weight size: torch.Size([256, 128, 3, 3])\r\n1.99519991875\r\nSequential (\r\n  (0): Conv2d(256, 256, kernel_size=(3, 3), stride=(1, 1), padding=(1, 1), groups=4)\r\n  (1): Conv2d(256, 256, kernel_size=(3, 3), stride=(1, 1), padding=(1, 1), groups=4)\r\n  (2): Conv2d(256, 256, kernel_size=(3, 3), stride=(1, 1), padding=(1, 1), groups=4)\r\n  (3): Conv2d(256, 256, kernel_size=(3, 3), stride=(1, 1), padding=(1, 1), groups=4)\r\n  (4): Conv2d(256, 256, kernel_size=(3, 3), stride=(1, 1), padding=(1, 1), groups=4)\r\n  (5): Conv2d(256, 256, kernel_size=(3, 3), stride=(1, 1), padding=(1, 1), groups=4)\r\n  (6): Conv2d(256, 256, kernel_size=(3, 3), stride=(1, 1), padding=(1, 1), groups=4)\r\n  (7): Conv2d(256, 256, kernel_size=(3, 3), stride=(1, 1), padding=(1, 1), groups=4)\r\n  (8): Conv2d(256, 256, kernel_size=(3, 3), stride=(1, 1), padding=(1, 1), groups=4)\r\n  (9): Conv2d(256, 256, kernel_size=(3, 3), stride=(1, 1), padding=(1, 1), groups=4)\r\n)\r\ntesting model of weight size: torch.Size([256, 64, 3, 3])\r\n1.34896993637\r\nSequential (\r\n  (0): Conv2d(256, 256, kernel_size=(3, 3), stride=(1, 1), padding=(1, 1), groups=256)\r\n  (1): Conv2d(256, 256, kernel_size=(3, 3), stride=(1, 1), padding=(1, 1), groups=256)\r\n  (2): Conv2d(256, 256, kernel_size=(3, 3), stride=(1, 1), padding=(1, 1), groups=256)\r\n  (3): Conv2d(256, 256, kernel_size=(3, 3), stride=(1, 1), padding=(1, 1), groups=256)\r\n  (4): Conv2d(256, 256, kernel_size=(3, 3), stride=(1, 1), padding=(1, 1), groups=256)\r\n  (5): Conv2d(256, 256, kernel_size=(3, 3), stride=(1, 1), padding=(1, 1), groups=256)\r\n  (6): Conv2d(256, 256, kernel_size=(3, 3), stride=(1, 1), padding=(1, 1), groups=256)\r\n  (7): Conv2d(256, 256, kernel_size=(3, 3), stride=(1, 1), padding=(1, 1), groups=256)\r\n  (8): Conv2d(256, 256, kernel_size=(3, 3), stride=(1, 1), padding=(1, 1), groups=256)\r\n  (9): Conv2d(256, 256, kernel_size=(3, 3), stride=(1, 1), padding=(1, 1), groups=256)\r\n)\r\ntesting model of weight size: torch.Size([256, 1, 3, 3])\r\n5.64783811569\r\n\r\n```"}