…
ng>: 3</li>\n<li><strong>Bazel version (if compiling from source)</strong>:</li>\n<li><strong>GCC/Compiler version (if compiling from source)</strong>:</li>\n<li><strong>CUDA/cuDNN version</strong>: 8.0/6</li>\n<li><strong>GPU model and memory</strong>: NVIDIA Tesla k80 totalMemory: 11.17GiB freeMemory: 11.09GiB</li>\n<li><strong>Exact command to reproduce</strong>: See below:</li>\n</ul>\n<h3>Below is the log:</h3>\n<blockquote>\n<p>keep_dims is deprecated, use keepdims instead</p>\n<hr>\n<h1>Layer (type)                 Output Shape              Param #</h1>\n<p>input_1 (InputLayer)         (None, 7, 264)            0</p>\n<hr>\n<p>reshape_1 (Reshape)          (None, 7, 264, 1)         0</p>\n<hr>\n<p>conv2d_1 (Conv2D)            (None, 7, 264, 64)        16960</p>\n<hr>\n<p>max_pooling2d_1 (MaxPooling2 (None, 7, 132, 64)        0</p>\n<hr>\n<p>flatten_1 (Flatten)          (None, 59136)             0</p>\n<hr>\n<p>dense_1 (Dense)              (None, 1024)              60556288</p>\n<hr>\n<p>dropout_1 (Dropout)          (None, 1024)              0</p>\n<hr>\n<p>dense_2 (Dense)              (None, 512)               524800</p>\n<hr>\n<p>dropout_2 (Dropout)          (None, 512)               0</p>\n<hr>\n<h1>dense_3 (Dense)              (None, 88)                45144</h1>\n<p>Total params: 61,143,192<br>\nTrainable params: 61,143,192<br>\nNon-trainable params: 0</p>\n<hr>\n<p>/home/hpnhxxwn/miniconda3/envs/carnd-term1/lib/python3.5/site-packages/keras/engine/training.py:2057: UserWarning: Using a generator with <code>use_multiprocessing=True</code> and multiple worker<br>\ns may duplicate your data. Please consider using the<code>keras.utils.Sequence class. U
…
